saved_model.pth (torch, 206906 bytes, 68 tensors)

_encoder.MLP1.0.weight f4 [32, 30]
0.08098757 0.17574863 -0.067332715 0.09848941 -0.011792813 0.17539392 0.032476682 0.12040715
-0.06667489 -0.10640877 -0.046926368 0.09438409 0.16009237 0.0016224614 0.0380965 0.026367594
0.04226599 0.074275434 0.07838252 0.018740114 -0.0664827 0.02510999 -0.027119815 -0.020804366
-0.12413561 0.16399005 -0.17130513 -0.13621382 0.17774104 -0.070302226 0.032016397 -0.035323713
0.07877995 0.12676254 0.076830685 0.03707432 -0.02573658 -0.17320716 0.17855744 -0.14240406
0.17425746 -0.02579776 -0.011550697 -0.020905647 0.16394469 -0.15609705 -0.05295549 -0.15432861
-0.035307106 -0.016754769 0.06589186 0.17951216 -0.17473291 0.10641421 0.10366979 -0.0977271
0.113636106 0.056278832 -0.08645719 -0.1673658 -0.08497261 0.07798586 -0.118056096 0.15918283
0.033490773 0.12369222 -0.073569804 0.12824647 0.0018453295 -0.061863784 -0.10368075 0.111559145
0.087383635 -0.16728525 0.046886805 -0.059269484 -0.04936466 -0.014852533 -0.17419514 -0.11495711
0.058849253 0.1542048 -0.031515643 -0.051311936 -0.10960873 0.10253549 0.08486875 0.1514721
0.10549112 0.01042873 0.010594473 -0.066834666 -0.012605814 -0.052025393 -0.14264694 -0.119499974
-0.050955284 -0.09196888 0.12792145 -0.10472692 -0.07758153 -0.07062604 0.08824482 -0.17169997
0.16646351 0.11292959 0.122724526 -0.03338562 0.027102929 -0.07536901 -0.02553892 -0.07661298
-0.088130556 -0.07921594 -0.082750306 0.03765438 -0.02335196 -0.10698685 0.14634018 0.075246
0.11278573 0.009090821 0.1377288 0.060218126 -0.015144949 -0.121791296 0.14692684 0.09079165
-0.06472607 0.11559326 0.034448322 0.08019902 0.15680163 -0.07745015 -0.124920316 0.03249233
0.1282223 -0.076737136 -0.06892838 0.04500833 0.12882519 0.023837734 0.1464391 -0.09630681
-0.17781457 -0.07386696 -0.14859684 0.04426505 0.025920419 -0.035776492 -0.12722807 0.06618022
-0.17278711 -0.03104207 0.018719228 0.029062295 0.12632117 -0.05012403 -0.045039922 0.07148057
0.040670283 0.09786672 0.046930335 0.17602615 -0.07867963 0.12415221 0.10072591 -0.08549263
0.058144763 -0.18339112 0.120376356 0.04353432 -0.12351962 -0.027362525 -0.07235273 -0.09552724
0.08698601 -0.012096115 -0.17552593 0.010964199 -0.020175803 -0.07699863 -0.04255932 -0.09286475
-0.1536371 0.18114114 -0.015587826 -0.13933432 0.17987362 -0.14830047 -0.009802266 0.06484709
-0.082186274 0.12666304 0.1202627 -0.06686538 -0.10700071 -0.11030996 -0.09925609 -0.11433069
0.01823319 -0.024265338 0.006371218 0.14688472 -0.13442184 0.08357918 0.11014317 0.1392573
-0.07494624 -0.15900071 0.083555475 0.039688505 0.087491155 -0.030015312 0.120489806 -0.1648547
0.0635479 -0.14993185 -0.16252297 0.13996594 -0.14493252 -0.08613287 -0.029896833 0.05593111
-0.15336348 0.052984133 0.040828746 -0.06668241 -0.05359627 -0.019258345 0.009408033 -0.112162046
0.013411538 -0.006917318 0.005928159 -0.12184681 -0.12113779 -0.12725058 0.081380896 -0.090915605
0.14265499 0.10671584 -0.11224821 -0.12082659 -0.054507136 0.068861194 0.1749762 0.1268015
-0.027887177 -0.17760882 -0.14029557 -0.07335498 -0.099627696 -0.12484514 -0.09003774 -0.05040642
00000000: d0dc a53d 73f7 333e bce5 89bd d1b4 c93d
00000010: a536 41bc 779a 333e 4506 053d 0698 f63d
00000020: d88c 88bd d7ec d9bd dd35 40bd 724c c13d
00000030: 41ef 233e c5a8 d43a 130b 1c3d da00 d83c
00000040: 1a1f 2d3d b81d 983d 0487 a03d de84 993c
00000050: 1528 88bd 77b3 cd3c 602a debc eb6d aabc
00000060: d03a febd 02ed 273e 9d6a 2fbe a37b 0bbe
00000070: bf01 363e 9dfa 8fbd a023 033d 99af 10bd
00000080: 6257 a13d 0ace 013e 6859 9d3d 3edb 173d
00000090: 85d5 d2bc 385d 31be c3d7 363e 5fd2 11be
000000a0: 8c70 323e d355 d3bc 223f 3dbc 5242 abbc
000000b0: 1ee1 273e e8d7 1fbe dbe7 58bd 5208 1ebe
000000c0: 2f9e 10bd 4c41 89bc 50f2 863d 09d2 373e
000000d0: 2fed 32be b1ef d93d d450 d43d 2525 c8bd
000000e0: 0cba e83d a284 663d 7810 b1bd f161 2bbe
000000f0: 1f06 aebd 0db7 9f3d 65c7 f1bd d300 233e
00000100: 9f2d 093d 5952 fd3d c4ab 96bd 0b53 033e
00000110: fcde f13a e164 7dbd 9356 d4bd 1f79 e43d
00000120: 31f6 b23d d34c 2bbe 610c 403d 8fc4 72bd
00000130: 9932 4abd 0a58 73bc 3660 32be a26e ebbd
00000140: ea0b 713d dde7 1d3e 8c16 01bd 772c 52bd
00000150: 8b7a e0bd 21fe d13d abcf ad3d 811b 1b3e
00000160: ba0b d83d 44dd 2a3c 7194 2d3c 9de0 88bd
00000170: 9e88 4ebc 9418 55bd 0a12 12be 67bc f4bd
00000180: 7db6 50bd 2e5a bcbd d7fd 023e 117b d6bd
00000190: 11e3 9ebd 63a4 90bd b3b9 b43d 1ed2 2fbe
000001a0: 6975 2a3e a147 e73d ff56 fb3d 5cbf 08bd
000001b0: f606 de3c 115b 9abd ff36 d1bc 44e7 9cbd
000001c0: cb7d b4bd f73b a2bd fe78 a9bd 7b3b 1a3d
000001d0: 9c4c bfbc ec1b dbbd 33da 153e 931a 9a3d
000001e0: 34fc e63d abf1 143c c708 0d3e 48a7 763d
000001f0: 8522 78bc b76d f9bd fd73 163e f9f0 b93d
00000200: 1a8f 84bd 29bc ec3d af19 0d3d 623f a43d
00000210: 9b90 203e 2f9e 9ebd 39d6 ffbd ad16 053d
00000220: b54c 033e 5c28 9dbd 532a 8dbd a85a 383d
00000230: c0ea 033e 5a47 c33c 22f4 153e 813c c5bd
00000240: 0615 36be 9047 97bd c529 18be 454f 353d
00000250: 0f57 d43c 5f8a 12bd 1348 02be 7f89 873d
00000260: 1bef 30be f04b febc 1159 993c 0d14 ee3c
00000270: 565a 013e db4e 4dbd c87b 38bd 6864 923d
00000280: e295 263d 596e c83d 063a 403d 3340 343e
00000290: c922 a1bd 8443 fe3d 6349 ce3d c316 afbd
000002a0: 3429 6e3d e2ca 3bbe e187 f63d 0b51 323d
000002b0: dbf7 fcbd 6027 e0bc ab2d 94bd c9a3 c3bd
000002c0: b925 b23d c92e 46bc 12bd 33be 2fa3 333c
000002d0: ba47 a5bc 75b1 9dbd ae52 2ebd e02f bebd
000002e0: 0b53 1dbe 107d 393e 1564 7fbc a8ad 0ebe
000002f0: ca30 383e 14dc 17be af99 20bc 8dce 843d
00000300: 4751 a8bd f5b3 013e 4a4c f63d b7f0 88bd
00000310: 3023 dbbd 30ea e1bd c746 cbbd 3526 eabd
00000320: c55d 953c 1ac8 c6bc a6c5 d03b f368 163e
00000330: e1a5 09be 902b ab3d be92 e13d 7799 0e3e
00000340: 6a7d 99bd 15d1 22be 221f ab3d 6a90 223d
00000350: 902e b33d ace2 f5bc 5cc3 f63d accf 28be
00000360: 6725 823d bc87 19be 6c6c 26be 3b53 0f3e
00000370: 3169 14be 6e66 b0bd 34ea f4bc 0518 653d
00000380: 510b 1dbe e405 593d 0b3c 273d ca90 88bd
00000390: c387 5bbd adc3 9dbc 2724 1a3c 37b5 e5bd
000003a0: 11bc 5b3c abaa e2bb 0141 c23b d28a f9bd
000003b0: 1717 f8bd fa4d 02be 07ab a63d f631 babd
000003c0: 2614 123e d68d da3d 64e2 e5bd ee73 f7bd
000003d0: e042 5fbd 1907 8d3d f62c 333e 41d8 013e
000003e0: a673 e4bc 16df 35be a4a9 0fbe 233b 96bd
000003f0: 9b09 ccbd cfae ffbd b565 b8bd f676 4ebd

_encoder.MLP1.0.bias f4 [32]
0.11733934 0.17514245 -0.04809995 -0.1322156 -0.07254457 -0.11454784 0.16986048 0.027517317
-0.07639108 -0.14417677 0.050039597 0.033298947 0.15589403 -0.013969826 0.14043531 -0.091933325
0.03499734 0.16910891 -0.045116913 -0.06808461 0.05927833 0.13757545 0.16177341 -0.1683123
0.073626496 -0.13015173 0.029598279 -0.06330239 -0.16727684 -0.039818104 0.16339467 0.09251639
00000000: 9c4f f03d 8b58 333e 7404 45bd 8763 07be
00000010: 3f92 94bd 0f98 eabd e8ef 2d3e ff6b e13c
00000020: ed72 9cbd 13a3 13be 52f6 4c3d 7a64 083d
00000030: afa2 1f3e b2e1 64bc 46ce 0f3e 8a47 bcbd
00000040: 5f59 0f3d e32a 2d3e 83cc 38bd f26f 8bbd
00000050: d6cd 723d 94e0 0c3e eea7 253e 0f5a 2cbe
00000060: 7dc9 963d 7f46 05be 1778 f23c afa4 81bd
00000070: 9f4a 2bbe 4f18 23bd ef50 273e 3c79 bd3d

_encoder.MLP2.0.weight f4 [16, 30]
0.022554757 0.01981136 -0.13984711 0.026417263 -0.05013223 0.05406148 0.14620952 -0.050214976
-0.1196224 0.049324494 -0.07978702 0.091912396 0.17540592 0.020187112 -0.17146239 -0.098973736
0.15679127 -0.109295644 0.13203202 0.057856575 0.16721469 -0.1246131 -0.12337247 -0.008445088
0.11083679 -0.17821781 -0.11978149 0.17597242 0.09165188 -0.07937587 0.058153808 -0.15687442
-0.109224975 0.15156464 0.16478048 -0.05704026 -0.078260064 -0.081252016 0.0017471927 0.028430736
-0.09154772 0.047036808 0.08214992 0.11687978 0.15247075 -0.07141722 0.042957183 -0.14889438
-0.17640848 0.12731777 0.13199633 -0.11393892 -0.09583044 0.10228692 -0.009335535 0.14527567
-0.07044195 -0.013293847 -0.0697029 -0.052966274 0.078389615 -0.031907443 -0.025304772 0.10735419
0.032117352 0.04024197 -0.038449313 0.03711057 0.09900188 0.075857215 0.0067551197 0.07635199
-0.08558925 -0.018538507 0.13673612 0.16337493 -0.07367069 -0.020197347 0.062014624 -0.1700684
0.13347273 -0.074920125 -0.061680354 -0.17316149 0.048689492 -0.116249435 -0.11188034 -0.048150875
-0.17663284 0.13423944 -0.15899917 -0.10711712 0.04192011 -0.019920979 -0.107178695 0.11589386
0.027016139 0.1712397 -0.043721423 -0.10238883 0.16520903 -0.10699796 0.18419093 0.10671936
-0.10610228 -0.09385759 -0.0501793 0.056096576 0.020586094 0.016281314 -0.17057931 0.015589812
0.1193777 0.08262229 0.09568064 0.03490999 0.1628651 -0.1666256 -0.05883098 0.12680896
-0.0051322235 0.023815233 -0.035879053 0.07843945 -0.18094924 -0.10815335 -0.1556126 0.17688361
-0.15029308 -0.034656864 -0.17215483 -0.09143757 0.10766571 -0.08463216 -0.11596458 -0.1375257
-0.057354305 -0.1787359 0.121123664 -0.14401497 -0.15118888 0.1282268 -0.014821897 0.0776361
0.10262589 0.15525362 -0.11222961 -0.14272897 0.09629354 0.046685822 -0.06405892 0.06478992
0.046950407 -0.0100508435 -0.16864155 -0.114695944 -0.1573954 0.07434694 -0.010954789 0.018532334
-0.0029245405 0.033810094 -0.17318222 0.15734436 -0.1651637 -0.030453084 0.0492048 0.17543782
-0.043380268 -0.09263909 -0.15816097 0.07033954 0.13022898 -0.119601555 0.17826673 0.09333487
-0.053923838 0.034513377 0.13001052 0.04890219 0.076865986 0.14155425 0.067060664 -0.05642429
-0.13615943 0.048394773 -0.071751155 0.057618853 0.15331216 -0.14387001 -0.017508984 0.014162503
0.046664312 0.09239079 0.017044771 -0.12365843 -0.032711096 -0.048674487 0.07304795 -0.091924764
-0.00059162127 0.13636042 -0.045120217 -0.095819145 0.16819695 -0.11521587 0.10808307 0.14574182
-0.12822142 -0.029201288 0.068938255 0.07474822 -0.15217912 -0.1659992 -0.08388078 0.11219879
-0.14578736 0.12216784 -0.17726812 0.079735614 0.1331045 -0.16658397 0.08935646 0.016928807
-0.07853318 0.1627921 0.0051673083 0.089000985 -0.027631866 0.10537411 0.16405307 -0.023668
0.09451868 -0.0020145818 -0.18036005 0.16093098 0.09788291 0.09980233 -0.13379292 -0.12488462
-0.11832082 0.057863276 0.10505317 -0.049233038 0.16587453 -0.038253937 0.12180777 -0.12175188
0.14926249 0.11770804 0.030752404 0.015703963 0.008093441 -0.018918034 -0.14962581 -0.036751904
00000000: c1c4 b83c 6f4b a23c 1534 0fbe 0469 d83c
00000010: 7457 4dbd 926f 5d3d f3b7 153e 38ae 4dbd
00000020: 97fc f4bd 7b08 4a3d 6167 a3bd 913c bc3d
00000030: 9c9d 333e 715f a53c d693 2fbe beb2 cabd
00000040: e48d 203e 65d6 dfbd 6733 073e 04fb 6c3d
00000050: 543a 2b3e 2735 ffbd b5aa fcbd 445d 0abc
00000060: 66fe e23d bb7e 36be ff4f f5bd 1d32 343e
00000070: fbb3 bb3d d18f a2bd b032 6e3d b0a3 20be
00000080: 58b1 dfbd c333 1b3e 37bc 283e 0ca3 69bd
00000090: d046 a0bd 7567 a6bd 0f02 e53a 93e7 e83c
000000a0: 5f7d bbbd aba9 403d 383e a83d ab5e ef3d
000000b0: 4b21 1c3e 3143 92bd dff3 2f3d c577 18be
000000c0: 6da4 34be 975f 023e 0c2a 073e cf58 e9bd
000000d0: c042 c4bd ce7b d13d 12f4 18bc 25c3 143e
000000e0: de43 90bd 70ce 59bc 65c0 8ebd 2af3 58bd
000000f0: bc8a a03d 61b1 02bd f44b cfbc 83dc db3d
00000100: 7c8d 033d c4d4 243d 077d 1dbd 4101 183d
00000110: 7fc1 ca3d 075b 9b3d 0d5a dd3b 6f5e 9c3d
00000120: 6b49 afbd 11de 97bc 8e04 0c3e c24b 273e
00000130: a9e0 96bd e874 a5bc 0c03 7e3d 6926 2ebe
00000140: 13ad 083e b96f 99bd 8aa4 7cbd 3f51 31be
00000150: a26e 473d 2f14 eebd 8521 e5bd da39 45bd
00000160: 3ddf 34be 1076 093e aed0 22be 3860 dbbd
00000170: 6cb4 2b3d 5231 a3bc 8180 dbbd c359 ed3d
00000180: f350 dd3c 7659 2f3e 3c15 33bd 3cb1 d1bd
00000190: 8e2c 293e bf21 dbbd 8c9c 3c3e ae8f da3d
000001a0: 274c d9bd 6838 c0bd cf88 4dbd 86c5 653d
000001b0: 2ba4 a83c 6460 853c 58ac 2ebe 696c 7f3c
000001c0: 4c7c f43d e035 a93d 36f4 c33d c7fd 0e3d
000001d0: 1cc6 263e e79f 2abe c1f8 70bd 35da 013e
000001e0: 362c a8bb 2a18 c33c eaf5 12bd dda4 a03d
000001f0: c24a 39be 817f ddbd e958 1fbe fa20 353e
00000200: 6ee6 19be 5bf4 0dbd 5b49 30be 9f43 bbbd
00000210: d77f dc3d a053 adbd d67e edbd 89d3 0cbe
00000220: 59ec 6abd 8b06 37be af0f f83d a978 13be
00000230: 42d1 1abe e34d 033e 8bd7 72bc adff 9e3d
00000240: 862d d23d cefa 1e3e a3d8 e5bd 8b27 12be
00000250: 8c35 c53d a239 3f3d 5331 83bd 94b0 843d
00000260: 124f 403d 4bac 24bc 5fb0 2cbe b5e5 eabd
00000270: 422c 21be 3543 983d b77b 33bc 1fd1 973c
00000280: a6a9 3fbb 747c 0a3d ae56 31be e11e 213e
00000290: ac20 29be bf78 f9bc f98a 493d f9a5 333e
000002a0: 82af 31bd 90b9 bdbd f3f4 21be 2d0e 903d
000002b0: bf5a 053e a9f1 f4bd 8e8b 363e 5a26 bf3d
000002c0: 3edf 5cbd e65d 0d3d 7a21 053e aa4d 483d
000002d0: ea6b 9d3d 99f3 103e 1a57 893d 281d 67bd
000002e0: 616d 0bbe 9939 463d 45f2 92bd bf01 6c3d
000002f0: ddfd 1c3e a952 13be 006f 8fbc d809 683c
00000300: 1423 3f3d 6237 bd3d 7aa1 8b3c a240 fdbd
00000310: 12fc 05bd e65e 47bd 2a9a 953d 0d43 bcbd
00000320: 0817 1bba 11a2 0b3e facf 38bd d43c c4bd
00000330: d23b 2c3e 4cf6 ebbd a85a dd3d 583d 153e
00000340: 7a4c 03be 8a37 efbc 802f 8d3d 9815 993d
00000350: d8d4 1bbe b2fb 29be b0c9 abbd 7bc8 e53d
00000360: 4849 15be 2233 fa3d c685 35be 6d4c a33d
00000370: 8c4c 083e fd94 2abe 8500 b73d 48ae 8a3c
00000380: 01d6 a0bd f9b2 263e 8652 a93b 2646 b63d
00000390: 395c e2bc 62ce d73d 87fd 273e 65e3 c1bc
000003a0: 0293 c13d 1307 04bb 4eb0 38be 17cb 243e
000003b0: d676 c83d 2a65 cc3d 0301 09be 82c3 ffbd
000003c0: 3052 f2bd 0b02 6d3d 1e26 d73d 95a8 49bd
000003d0: 03db 293e 29b0 1cbd 5a76 f93d 0d59 f9bd
000003e0: 44d8 183e ea10 f13d 77ec fb3c 99a5 803c
000003f0: 5a9a 043c fef9 9abc 8237 19be 2a89 16bd

_encoder.MLP2.0.bias f4 [16]
0.029761385 -0.06498554 -0.12561305 -0.0072484137 0.16170579 0.018126307 -0.07826071 0.06485329
-0.016343893 -0.06046856 -0.011145594 -0.08304269 -0.012212688 0.15259491 0.013552662 0.1063584
00000000: 26ce f33c 2417 85bd b5a0 00be 1a84 edbb
00000010: 3496 253e 9f7d 943c 2747 a0bd cdd1 843d
00000020: a1e3 85bc e1ad 77bd 029c 36bc 4912 aabd
00000030: ba17 48bc d741 1c3e fc0b 5e3c 6fd2 d93d

_aggregator.MLP1.0.weight f4 [256, 32]
-0.15659475 -0.04544191 -0.13446465 0.066249244 -0.113890454 -0.17626591 0.10261057 0.09012331
0.09463158 0.062009044 -0.043771997 0.019029766 -0.013105553 -0.16456397 -0.04971477 -0.15732297
0.12785777 -0.09930046 0.025875501 0.073826484 0.13972956 0.028236575 0.07891341 0.036915857
0.16001008 -0.090592705 -0.164193 0.1744005 0.09197553 -0.07258724 -0.123394474 0.0577733
-0.096335016 0.008657041 -0.08502115 -0.16088146 -0.09466238 0.10780384 0.07061853 0.1726113
0.1087421 -0.03822853 0.0336576 0.091569 -0.041958924 0.12090701 -0.06332794 -0.16704634
0.03729406 -0.07249419 -0.15237948 0.06833225 0.092682876 0.062649176 0.118826546 -0.07033368
0.028391456 -0.08876026 -0.15934205 -0.022882905 0.07382777 0.08446422 -0.0040706736 0.09492236
-0.09385484 -0.12178635 -0.019157682 0.008068267 -0.040460225 0.03292798 -0.17169388 0.14690858
-0.09990769 0.13062942 0.16592361 0.008210753 0.028723124 0.15980278 -0.08515027 0.15635756
0.049607906 -0.028539091 0.13781221 -0.020235067 -0.12150451 -0.013894052 0.1378643 0.13160467
-0.15188469 0.010016715 -0.053318113 -0.17906426 0.13922332 0.14141242 -0.11311173 0.090165555
-0.16379766 0.17829926 0.16928971 -0.1708628 -0.0988724 0.021284563 -0.07696737 -0.14004388
0.11451439 0.037622068 0.1697206 0.03387304 -0.13988739 0.12826595 -0.16391096 -0.060984798
0.03098095 0.038173914 0.0024530892 0.16339628 -0.1241803 -0.046332076 0.107070185 0.12786652
0.06357763 -0.06883412 -0.04896488 0.044933528 -0.08084819 0.064661406 0.053208984 -0.046337932
0.17522511 -0.16966979 -0.056034885 0.05897705 0.00304913 -0.16976912 -0.08722957 0.022476416
-0.10729309 0.17574015 0.1419579 -0.14038308 0.017655585 -0.15049602 0.16051824 0.1385031
0.13843825 -0.038394086 0.12174333 0.04567332 -0.092210874 -0.067853026 0.043085482 -0.15325573
0.10181373 -0.17062502 -0.109148614 0.025967615 -0.04351184 0.06923603 0.03177264 -0.044851907
0.11737792 -0.061983086 -0.11102126 0.08793656 -0.085627034 0.12902144 0.1696605 -0.09213943
0.054675423 0.11284382 -0.0885145 -0.010418767 -0.014713783 -0.18007928 0.06186711 0.012892925
0.061255556 0.060178723 0.017553294 0.07728378 0.11472647 -0.014620605 0.105827995 0.06418916
0.09755267 0.07311092 -0.10150943 -0.0075464766 0.07456792 0.04935884 0.056342293 0.06620128
0.14328167 0.09917212 0.047347963 -0.000106933876 -0.15786725 0.061547108 -0.06521707 -0.044881407
0.02899814 0.13643622 0.15665445 0.14014603 0.14980099 -0.12383717 -0.01891098 -0.16340937
0.07518173 0.05065539 0.15026504 0.028528823 -0.02628855 -0.07120875 0.021282999 0.1737211
-0.07473484 -0.101798296 -0.016187984 0.012535296 -0.1100206 -0.16498306 -0.17306955 0.09985936
0.096334845 0.042090274 -0.03365405 0.023359174 -0.03799485 -0.059184417 0.032612827 0.11269832
-0.07214393 0.014611541 -0.059820313 -0.03654603 -0.13127759 -0.043016378 0.025420139 -0.061552495
0.16556783 -0.0055778474 0.0891085 -0.048871692 -0.13240027 -0.13341771 -0.025384063 0.14473647
-0.11051828 -0.12392654 -0.048746463 0.088440426 -0.02392597 0.0731159 -0.104018845 -0.114675
00000000: 605a 20be 4c21 3abd 1ab1 09be afad 873d
00000010: 663f e9bd 0d7f 34be 7e25 d23d 9292 b83d
00000020: 34ce c13d 32fd 7d3d 444a 33bd 50e4 9b3c
00000030: acb8 56bc 7583 28be b7a1 4bbd 4619 21be
00000040: 26ed 023e 0a5e cbbd dcf8 d33c 5732 973d
00000050: 4415 0f3e 6450 e73c 5b9d a13d 1535 173d
00000060: afd9 233e ab88 b9bd 3622 28be 0b96 323e
00000070: ab5d bc3d 9ea8 94bd 3eb6 fcbd b2a3 6c3d
00000080: 4b4b c5bd 43d6 0d3c 921f aebd 1cbe 24be
00000090: 5ade c1bd 42c8 dc3d 73a0 903d 04c1 303e
000000a0: 2eb4 de3d 8595 1cbd 8ddc 093d 8788 bb3d
000000b0: 1fdd 2bbd 189e f73d 14b2 81bd 320e 2bbe
000000c0: a8c1 183d d577 94bd 5e09 1cbe c7f1 8b3d
000000d0: 85d0 bd3d 364e 803d 555b f33d 1b0b 90bd
000000e0: 3395 e83c f0c7 b5bd 902a 23be ee74 bbbc
000000f0: 0433 973d 94fb ac3d 4963 85bb a766 c23d
00000100: f736 c0bd 1f6b f9bd 92f0 9cbc c430 043c
00000110: 9fb9 25bd 7ddf 063d 85d0 2fbe 346f 163e
00000120: 679c ccbd b8c3 053e e1e7 293e 6586 063c
00000130: c24c eb3c 57a3 233e 4463 aebd 321c 203e
00000140: a931 4b3d d0ca e9bc a51e 0d3e 03c4 a5bc
00000150: 5bd7 f8bd e1a3 63bc 4d2c 0d3e 60c3 063e
00000160: a987 1bbe 261d 243c 1864 5abd 9f5c 37be
00000170: 8f90 0e3e 6bce 103e 1fa7 e7bd b8a8 b83d
00000180: 93ba 27be 1594 363e 485a 2d3e a8f6 2ebe
00000190: 9d7d cabd f75c ae3c 12a1 9dbd aa67 0fbe
000001a0: 8586 ea3d 9919 1a3d 3dcb 2d3e 75be 0a3d
000001b0: a43e 0fbe 2658 033e 46d8 27be 32cb 79bd
000001c0: c3cb fd3c 405c 1c3d 02c4 203b 5b51 273e
000001d0: 3e52 febd b4c6 3dbd 9d47 db3d 71ef 023e
000001e0: fd34 823d e7f8 8cbd 668f 48bd 380c 383d
000001f0: bc93 a5bd 336d 843d aaf1 593d d8cc 3dbd
00000200: 366e 333e ebbd 2dbe d684 65bd eb91 713d
00000210: ead3 473b f5d7 2dbe 6ba5 b2bd 7620 b83c
00000220: 7bbc dbbd 3af5 333e 695d 113e 95c0 0fbe
00000230: 72a2 903c a11b 1abe e55e 243e c2d3 0d3e
00000240: c2c2 0d3e 1e43 1dbd 9154 f93d f213 3b3d
00000250: 0ed9 bcbd 87f6 8abd 677a 303d 12ef 1cbe
00000260: b883 d03d 53b8 2ebe 4f89 dfbd 09ba d43c
00000270: 7939 32bd 9fcb 8d3d 0724 023d a2b6 37bd
00000280: d663 f03d fae1 7dbd 1d5f e3bd 1518 b43d
00000290: 3a5d afbd 321e 043e 7bbb 2d3e 99b3 bcbd
000002a0: 56f3 5f3d a91a e73d 1747 b5bd 7ab3 2abc
000002b0: 1412 71bc b466 38be 5e68 7d3d d93c 533c
000002c0: 1be7 7a3d f77d 763d edcb 8f3c f546 9e3d
000002d0: b6f5 ea3d 438b 6fbc 59bc d83d 9b75 833d
000002e0: b2c9 c73d 2ebb 953d 2de4 cfbd 6f48 f7bb
000002f0: 11b7 983d 7f2c 4a3d 2dc7 663d 8994 873d
00000300: 6eb8 123e c11a cb3d f0ef 413d b041 e0b8
00000310: f4a7 21be d218 7c3d 8790 85bd 91d5 37bd
00000320: 828d ed3c f0b5 0b3e 066a 203e 7182 0f3e
00000330: 6e65 193e 589e fdbd 33eb 9abc c954 27be
00000340: e1f8 993d 077c 4f3d 14df 193e 47b5 e93c
00000350: 165b d7bc e5d5 91bd af59 ae3c f2e3 313e
00000360: 940e 99bd a07b d0bd aa9c 84bc d860 4d3c
00000370: 7b52 e1bd 52f1 28be 2539 31be 1083 cc3d
00000380: 344b c53d da66 2c3d d4d8 09bd bd5b bf3c
00000390: 7da0 1bbd 5c6b 72bd 0795 053d 60ce e63d
000003a0: 32c0 93bd 3f65 6f3c 2506 75bd 4ab1 15bd
000003b0: a26d 06be f131 30bd e53d d03c 781e 7cbd
000003c0: 9d8a 293e 60c6 b6bb 847e b63d af2d 48bd
000003d0: f093 07be a79e 08be 3df2 cfbc cc35 143e
000003e0: 6857 e2bd 33cd fdbd 5faa 47bd 4120 b53d
000003f0: 6500 c4bc cabd 953d d507 d5bd bada eabd

_aggregator.MLP1.0.bias f4 [256]
-0.04447544 -0.099217415 -0.10571555 -0.059616584 0.068484224 -0.103338785 -0.12620983 0.13252832
0.034761705 -0.058911316 0.057267662 0.021846991 -0.044363957 0.098203264 0.089787364 0.09444373
-0.0002932047 0.012162016 0.03640882 -0.16178586 0.08331823 0.048988454 -0.051453218 -0.07812932
0.07629236 -0.048368413 -0.16805351 0.028924704 -0.116903394 0.08000024 -0.03394223 0.17114227
-0.08698826 0.0144439265 0.08343671 0.1436837 -0.12753995 -0.11256289 -0.16600125 0.027373645
-0.031885765 -0.13876581 -0.15985855 0.073922776 0.08070242 -0.13309863 0.16301787 -0.019582402
0.03258077 0.037905302 -0.09121042 -0.118715495 -0.0835468 -0.16027986 -0.12490614 0.024465622
-0.07876056 0.1296772 0.102305785 -0.09913329 -0.15344617 -0.09588864 -0.06321005 -0.106627
-0.058635212 0.06741773 0.13177593 0.025711372 -0.045623522 0.15009534 -0.06586088 0.06293685
0.095203444 0.16073741 0.04528213 -0.08747327 0.095667414 0.14007474 0.061328374 0.014337375
0.096761905 0.14239705 0.06530196 0.12647456 -0.0043088016 -0.09891102 0.16085427 -0.051755052
0.049346767 -0.0954746 -0.09457926 -0.16780515 -0.103275895 0.119873844 -0.17083561 0.1365508
0.079069175 0.13955456 -0.1348288 -0.02478971 -0.028316433 -0.1074516 0.16713423 -0.14717534
-0.05281123 -0.12362537 -0.059401732 -0.11867009 -0.0122951325 0.01646185 -0.07012668 -0.057656314
-0.1469329 0.13640834 0.08661193 0.070283815 -0.1298656 -0.12918094 -0.12506457 0.090961546
-0.14714618 -0.1692183 -0.10756731 -0.17534049 0.04332657 0.07945214 -0.10272742 -0.1772966
-0.117415965 -0.16399288 -0.074154094 -0.1522723 0.049876653 -0.12434749 -0.045898035 -0.046108324
0.013035678 -0.14854544 -0.13759027 -0.15403393 0.0076482445 0.048575703 -0.16268754 0.0091218585
-0.13590048 0.1539619 0.073931366 -0.01868854 0.16492829 -0.03759366 -0.029651921 0.12210422
-0.0748555 -0.022795742 -0.037492845 0.093087226 -0.11456838 0.07421406 -0.14422706 0.057789814
-0.0017934411 -0.10689315 0.032424897 0.16474018 -0.07627811 0.1537481 0.044958584 -0.15848662
-0.046149693 -0.0644975 -0.10067125 0.026687525 0.013577074 -0.02143728 0.08820234 0.13744539
-0.14015539 0.16511615 0.084295005 0.1331887 -0.046822958 -0.07298245 -0.15922025 0.056976575
-0.13145523 0.13122743 0.16330862 0.09348705 -0.017097378 0.17055134 -0.06844467 -0.022162236
0.040184088 0.16038659 -0.02544632 0.003736998 -0.02636535 -0.11943046 0.12576516 -0.08384472
0.06493144 0.039489053 -0.033656344 0.14403723 0.07420643 -0.06598408 -0.041185394 -0.028100863
0.007421772 0.15721643 -0.11886758 0.012416584 0.03739162 0.050294265 0.1502938 -0.032686718
-0.067518055 -9.844275e-07 -0.1670843 -0.007744268 0.1524455 -0.009032016 0.15221523 -0.111280195
0.098708265 -0.012383129 0.143217 -0.16642663 0.043810196 -0.1461639 0.08277199 -0.05360088
-0.06337695 0.1598049 0.08811703 0.014076948 -0.09297172 -0.15036164 0.048591934 -0.019559462
0.08092928 0.1277973 0.0052623996 -0.03657753 -0.051881846 0.10528615 -0.013702048 -0.16418476
-0.11091061 -0.14604491 -0.08393158 -0.124000415 -0.011296069 -0.041944623 0.14974171 -0.14859547
00000000: e12b 36bd 8032 cbbd 6581 d8bd 8530 74bd
00000010: 7541 8c3d 49a3 d3bd 263d 01be 81b5 073e
00000020: 4a62 0e3d fe4c 71bd 7f91 6a3d 76f8 b23c
00000030: fbb6 35bd cb1e c93d 70e2 b73d b76b c13d
00000040: 45b9 99b9 3143 473c 6a21 153d 31ab 25be
00000050: c0a2 aa3d 1ea8 483d 9cc0 52bd 4402 a0bd
00000060: 2b3f 9c3d f51d 46bd 3816 2cbe 80f3 ec3c
00000070: 0c6b efbd 2ad7 a33d 0207 0bbd eb3f 2f3e
00000080: e726 b2bd 38a6 6c3c dee0 aa3d d221 133e
00000090: d599 02be 5f87 e6bd 3bfc 29be b23e e03c
000000a0: a69a 02bd a018 0ebe f6b1 23be d364 973d
000000b0: 4f47 a53d 024b 08be 28ee 263e 466b a0bc
000000c0: 6a73 053d 9742 1b3d 87cc babd 1c21 f3bd
000000d0: 961a abbd 6720 24be cace ffbd 216c c83c
000000e0: 374d a1bd 1aca 043e b285 d13d 6506 cbbd
000000f0: fe20 1dbe 4361 c4bd 4574 81bd 425f dabd
00000100: 7a2b 70bd 4f12 8a3d 45f0 063e a8a0 d23c
00000110: bbdf 3abd 98b2 193e 12e2 86bd 09e5 803d
00000120: 06fa c23d 5998 243e c179 393d 3025 b3bd
00000130: 47ed c33d c16f 0f3e 7633 7b3d 4fe7 6a3c
00000140: 1b2b c63d 88d0 113e 09bd 853d 8c82 013e
00000150: d930 8dbb dc91 cabd fbb6 243e 1bfd 53bd
00000160: d61f 4a3d 3088 c3bd c5b2 c1bd 1dd5 2bbe
00000170: 5082 d3bd 6b80 f53d 88ef 2ebe f9d3 0b3e
00000180: 05ef a13d 64e7 0e3e 9010 0abe ca13 cbbc
00000190: ddf7 e7bc 960f dcbd 3c25 2b3e 22b5 16be
000001a0: 9750 58bd 4c2f fdbd 3b4f 73bd 4e09 f3bd
000001b0: 8671 49bc 00db 863c 949e 8fbd 0729 6cbd
000001c0: 9475 16be a1ae 0b3e 9861 b13d f6f0 8f3d
000001d0: 7dfb 04be 0248 04be ed10 00be 0c4a ba3d
000001e0: 7dad 16be 9047 2dbe 404c dcbd 758c 33be
000001f0: 3477 313d ceb7 a23d c162 d2bd 3d8d 35be
00000200: c877 f0bd c0ed 27be 1ade 97bd 45ed 1bbe
00000210: 764b 4c3d e6a9 febd 94ff 3bbd 15dc 3cbd
00000220: 9993 553c 4c1c 18be 77e4 0cbe 12bb 1dbe
00000230: 209e fa3b 51f7 463d 9097 26be d973 153c
00000240: 7f29 0bbe 30a8 1d3e 5469 973d b618 99bc
00000250: f6e2 283e cffb 19bd 96e8 f2bc c711 fa3d
00000260: d74d 99bd 23be babc 1992 19bd 84a4 be3d
00000270: d4a2 eabd 8bfd 973d 42b0 13be 03b5 6c3d
00000280: e611 ebba ccea dabd f8cf 043d a6b1 283e
00000290: b337 9cbd 2470 1d3e 7e26 383d 514a 22be
000002a0: 7607 3dbd 4417 84bd ba2c cebd cc9f da3c
000002b0: 6072 5e3c 3c9d afbc 6ea3 b43d 7cbe 0c3e
000002c0: e584 0fbe 3514 293e dca2 ac3d 9e62 083e
000002d0: 6ec9 3fbd d377 95bd a20a 23be 4560 693d
000002e0: 339c 06be 7c60 063e 603a 273e 2376 bf3d
000002f0: cd0f 8cbc 03a5 2e3e b82c 8cbd 948d b5bc
00000300: 1298 243d 623c 243e cd74 d0bc 6ce8 743b
00000310: 25fc d7bc f597 f4bd 95c8 003e c8b6 abbd
00000320: c6fa 843d 46bf 213d 3cdb 09bd 7f7e 133e
00000330: 8af9 973d a922 87bd 04b2 28bd c833 e6bc
00000340: 5632 f33b 58fd 203e d970 f3bd ee6e 4b3c
00000350: f527 193d 5c01 4e3d 9ee6 193e 82e2 05bd
00000360: e846 8abd ac20 84b5 2618 2bbe a1c3 fdbb
00000370: ac1a 1c3e 05fb 13bc 4fde 1b3e dfe6 e3bd
00000380: 8f27 ca3d 9ce2 4abc 7aa7 123e be6b 2abe
00000390: 5272 333d fdab 15be 5c84 a93d 998c 5bbd
000003a0: c6cb 81bd e5a3 233e b476 b43d 00a3 663c
000003b0: f567 bebd 67f8 19be 5608 473d 2a3b a0bc
000003c0: 40be a53d 4cdd 023e 3570 ac3b 52d2 15bd
000003d0: 0f82 54bd 44a0 d73d 8e7e 60bc 0d20 28be
000003e0: 1a25 e3bd cc8c 15be 52e4 abbd eef3 fdbd
000003f0: 2613 39bc 20ce 2bbd e455 193e 6929 18be

_aggregator.MLP2.0.weight f4 [128, 128]
0.0073902304 -0.04579722 -0.072977245 0.05249394 0.026318789 -0.013525054 0.023773871 -0.06763501
0.07674282 0.064849846 0.077507585 -0.009961315 0.054026775 -0.059811026 0.06424473 0.033035945
0.0840784 0.013114169 0.046541348 0.028241917 0.042308338 -0.022600502 0.03724382 -0.079733334
0.027798316 -0.039445374 0.054183815 -0.04453494 -0.0631704 -0.02422218 0.015125468 0.08946342
0.056789007 -0.07683908 0.027817333 0.076218076 -0.012480838 -0.04517683 -0.035539415 -0.033400945
0.046267964 0.03921564 0.015650962 -0.03559156 -0.03724655 0.019369476 0.027555315 -0.059687085
-0.07197389 -0.09131011 0.022343367 0.080814 0.0040346356 -0.07158256 0.049146585 -0.09193728
-0.045793388 0.058525432 -0.053071555 -0.049484815 -0.02079336 0.061264474 -0.087472565 -0.008213939
0.0816978 -0.031240292 0.055205196 0.036963113 0.06766369 -0.062228393 -0.03633737 0.08041169
0.012556894 -0.07136447 -0.08631152 -0.0401705 -0.04731504 -0.06401617 0.040141743 -0.071097605
-0.04712789 0.012353077 -0.081147656 -0.08854639 -0.02378319 0.07835457 0.057556357 0.01231413
0.062172968 0.0011783967 0.06030896 0.007486798 -0.069452405 0.0315834 0.083436996 0.062328752
0.005343013 0.085214026 -0.0510033 0.06746355 0.07896643 -0.03297486 0.00027571476 -0.07191104
0.011463018 -0.054314725 -0.045832552 -0.026314015 -0.039188605 -0.011030499 0.06697426 0.060473833
0.020721631 0.084110856 -0.021385167 0.054166775 0.0059316866 0.08972911 -0.040972218 0.05193267
0.06620248 0.094712056 0.05991076 -0.065131344 -0.06706999 -0.0032960891 0.0025225459 0.0162265
0.07444482 -0.044428077 -0.032691423 0.057626523 0.05444717 0.060810886 0.08419621 0.019027231
-0.00499375 0.04052365 -0.01724876 0.0014329342 -0.026834559 0.031905666 -0.020449322 -0.036517452
-0.02767101 -0.060389567 0.035319943 -0.01839161 0.02722308 0.046569176 0.013268042 -0.052116483
-0.04763321 -0.059036467 -0.06520739 0.07120439 -0.038302403 0.024112992 0.009699102 0.054189324
0.00072848046 -0.06934413 -0.02611195 0.08557522 0.0698535 0.08142979 0.058947794 -0.015190681
0.0450425 0.0185387 0.06017464 -0.06525627 0.051595587 0.058344513 0.037844844 -0.0029330207
0.031941928 0.063965484 0.05973009 0.076432355 0.06590985 -0.041576162 0.087594606 0.04681118
0.04006891 -0.006526255 0.079728164 0.029916514 -0.03449413 -0.029759008 0.04311961 0.06909289
0.04318226 0.08075445 -0.08605316 -0.03603282 0.06555314 0.047394395 0.047684986 0.04980055
0.0697604 0.019696511 0.08065201 -0.028750852 0.01790445 0.07475623 0.039888848 -0.08249275
0.010326258 -0.03862532 0.08924848 0.08453426 -0.03429752 -0.039771356 0.008289975 -0.027272945
0.014241498 0.00264655 -0.014025064 0.07888798 0.06322028 -0.025945177 -0.030660357 0.00057988125
-0.081607714 -0.056726035 0.03528527 0.08531418 -0.0047824667 -0.078715384 0.07854639 0.00035649867
-0.043166675 0.07155344 -0.029027551 -0.08126521 -0.036241908 0.051986765 -0.07529687 -0.05250303
-0.06714332 -0.042146128 0.012522168 0.058915872 0.0059992364 -0.032447375 -0.0070155114 -0.055807035
0.070805475 0.05770633 -0.071243875 -0.003312945 0.00907933 0.04935879 -0.06419781 0.034648374
00000000: bf29 f23b de95 3bbd 1875 95bd e303 573d
00000010: 809a d73c 3098 5dbc 6cc1 c23c 3984 8abd
00000020: 572b 9d3d ffcf 843d 4cbc 9e3d c934 23bc
00000030: 2e4b 5d3d 68fc 74bd be92 833d b350 073d
00000040: 4c31 ac3d d0dc 563c 24a2 3e3d 985b e73c
00000050: 824b 2d3d b024 b9bc fa8c 183d 3b4b a3bd
00000060: 4bb9 e33c 7991 21bd d9ef 5d3d 456a 36bd
00000070: 7c5f 81bd 986d c6bc d0d0 773c 9938 b73d
00000080: 979b 683d cf5d 9dbd 2de1 e33c 3918 9c3d
00000090: 6e7c 4cbc 570b 39bd c791 11bd 6ecf 08bd
000000a0: 7a83 3d3d 94a0 203d 7236 803c 75c8 11bd
000000b0: d78f 18bd bcac 9e3c afbb e13c 727a 74bd
000000c0: 0c67 93bd cc00 bbbd 7009 b73c cf81 a53d
000000d0: fa34 843b e199 92bd ee4d 493d 9d49 bcbd
000000e0: d991 3bbd 5db8 6f3d 8f61 59bd 97b0 4abd
000000f0: d656 aabc 75f0 7a3d d124 b3bd c293 06bc
00000100: 2d51 a73d a4eb ffbc d81e 623d a266 173d
00000110: 4393 8a3d 33e3 7ebd 7ed6 14bd e2ae a43d
00000120: 6ebb 4d3c 8927 92bd 18c4 b0bd d289 24bd
00000130: 6acd 41bd e91a 83bd ab6b 243d 9f9b 91bd
00000140: 2d09 41bd 8f64 4a3c be30 a6bd cf57 b5bd
00000150: f7d4 c2bc 5c78 a03d 37c0 6b3d 34c1 493c
00000160: 15a9 7e3d 6f74 9a3a 8706 773d d053 f53b
00000170: 103d 8ebd 985d 013d 04e1 aa3d 6f4c 7f3d
00000180: 7114 af3b b184 ae3d d6e8 50bd 542a 8a3d
00000190: 27b9 a13d a610 07bd cf8d 9039 1846 93bd
000001a0: 62cf 3b3c 1e79 5ebd eaba 3bbd 7d90 d7bc
000001b0: 3b84 20bd 44b9 34bc cd29 893d 69b3 773d
000001c0: 69c0 a93c 5042 ac3d f22f afbc fbdd 5d3d
000001d0: 985e c23b e5c3 b73d 7cd2 27bd 5ab7 543d
000001e0: 2a95 873d 65f8 c13d fc64 753d 9563 85bd
000001f0: fe5b 89bd 3303 58bb 4c51 253b 70ed 843c
00000200: 8776 983d 37fa 35bd 71e7 05bd ca09 6c3d
00000210: ff03 5f3d d614 793d 106f ac3d ffde 9b3c
00000220: 9ca2 a3bb 20fc 253d 464d 8dbc 4bd1 bb3a
00000230: 26d4 dbbc 84af 023d 5685 a7bc 5393 15bd
00000240: 50ae e2bc 0d5b 77bd a5ab 103d 00aa 96bc
00000250: f002 df3c 52bf 3e3d 3462 593c 1878 55bd
00000260: 0a1b 43bd 39d0 71bd 748b 85bd 9bd3 913d
00000270: fbe2 1cbd 9c88 c53c fbe8 1e3c a0f5 5d3d
00000280: 7ff7 3e3a 4c04 8ebd bae8 d5bc 1042 af3d
00000290: 5a0f 8f3d a9c4 a63d 3e73 713d 56e2 78bc
000002a0: 7c7e 383d 79de 973c af79 763d 14a5 85bd
000002b0: e555 533d a8fa 6e3d 3203 1b3d ec37 40bb
000002c0: 8ad5 023d 5600 833d 8aa7 743d 9188 9c3d
000002d0: befb 863d c44b 2abd cd64 b33d 14bd 3f3d
000002e0: 4c1f 243d 32da d5bb 8548 a33d 7a13 f53c
000002f0: b849 0dbd 2ac9 f3bc 309e 303d 9380 8d3d
00000300: e2df 303d 9762 a53d a43c b0bd 2697 13bd
00000310: ba40 863d a020 423d 5551 433d a9fb 4b3d
00000320: 8ade 8e3d 945a a13c e22c a53d e886 ebbc
00000330: 5aac 923c cb19 993d 7d62 233d f5f1 a8bd
00000340: 772f 293c 9535 1ebd e8c7 b63d 4c20 ad3d
00000350: 8e7b 0cbd 4ae7 22bd add2 073c 836b dfbc
00000360: 2c55 693c be71 2d3b 62c9 65bc 0590 a13d
00000370: a279 813d fb8a d4bc 6e2b fbbc 2c03 183a
00000380: f221 a7bd 8f59 68bd 4a87 103d 33b9 ae3d
00000390: 3db6 9cbb 8835 a1bd eedc a03d 71e8 ba39
000003a0: 8acf 30bd 9c8a 923d 30cb edbc 606e a6bd
000003b0: 6572 14bd 13f0 543d 3f35 9abd 6b0d 57bd
000003c0: 7082 89bd 6ba1 2cbd c829 4d3c c551 713d
000003d0: 3e95 c43b 8ae7 04bd 60e2 e5bb eb95 64bd
000003e0: 7602 913d 795d 6c3d 4fe8 91bd fe1d 59bb
000003f0: 78c1 143c 712c 4a3d 247a 83bd 74eb 0d3d

_aggregator.MLP2.0.bias f4 [128]
0.022940509 0.013113032 0.044751037 -0.03398484 -0.03520252 -0.020734932 0.014908757 -0.001180937
0.018669082 0.0040514725 -0.013000288 -0.0077840528 0.027368838 -0.005934794 -0.0017022243 0.022062024
0.04723505 0.04533115 -0.02509486 -0.0015293476 -0.046675082 0.03761252 -0.0018163644 -0.029354503
0.03729382 0.006556495 -0.0067979037 -0.043107018 -0.03752344 0.018239185 0.035386782 0.036712922
0.012478533 0.045490522 -0.018849738 0.00071180315 -0.0026421957 0.006651373 -0.033935204 0.0034691195
-0.021157611 0.0035218555 0.0034690558 0.029006187 0.00070458674 0.040227387 0.022186149 -0.018655052
0.021664742 0.018104339 -0.023020523 0.0001687121 -0.0010245586 0.015646243 -0.0020919247 -0.023546878
0.012850745 0.010401945 -0.0016000757 -0.008472629 0.008214479 -0.0065316493 0.032829843 0.041383285
-0.017943935 0.03322675 0.0306142 0.00071578 0.014317156 -0.010304824 0.0013469465 -0.037281644
-0.0019539078 -0.009641253 0.006830111 -0.038792673 -0.0395497 -0.009750116 0.03925493 -0.0055124685
0.02779862 -0.019295719 -0.020566698 0.000753236 0.032441333 0.0009811758 0.003129965 -0.01900707
0.00033036707 0.00074898894 0.029613508 0.0038055135 0.0038153285 0.009039413 0.00048611796 0.028502967
0.010029914 -0.00017181694 -0.026338251 0.018353552 0.0025818886 0.00046512688 0.025802253 -0.0067544384
-0.0269314 -0.010607932 0.03481105 -0.0051514 -0.011641169 0.007965221 -0.039102934 -0.033172954
-0.024458406 -0.01507303 0.012461965 -0.046223473 -0.011647979 0.016140036 0.0116182305 0.020008424
0.04514095 -0.011373965 0.00071952154 0.03947237 0.0012666609 0.032755323 -0.0024839295 -0.033095825
00000000: bced bb3c 0bd8 563c dd4c 373d b033 0bbd
00000010: 8530 10bd 4edc a9bc dc43 743c acc9 9aba
00000020: e7ef 983c 37c2 843b 29ff 54bc 5e11 ffbb
00000030: 9d34 e03c a978 c2bb 2b1d dfba 6bbb b43c
00000040: 8a79 413d 28ad 393d bc93 cdbc 6474 c8ba
00000050: 5f2e 3fbd 960f 1a3d 1313 eeba db78 f0bc
00000060: 68c1 183d ded7 d63b f3c0 debb fc90 30bd
00000070: 2eb2 19bd 586a 953c bbf1 103d 4a60 163d
00000080: c372 4c3c 4554 3a3d c46a 9abc 4d98 3a3a
00000090: b028 2dbb c3f3 d93b a4ff 0abd 2b5a 633b
000000a0: ba52 adbc eece 663b 1959 633b 629e ed3c
000000b0: 04b4 383a 79c5 243d babf b53c 7bd2 98bc
000000c0: 427a b13c 8d4f 943c 8995 bcbc 4fe8 3039
000000d0: 7b4a 86ba 8d2c 803c ac18 09bb 62e5 c0bc
000000e0: ee8b 523c eb6c 2a3c a2b9 d1ba c8d0 0abc
000000f0: 0696 063c 7207 d6bb 9678 063d 8581 293d
00000100: 29ff 92bc c618 083d a1ca fa3c 2fa3 3b3a
00000110: 8192 6a3c 91d5 28bc 068c b03a a3b4 18bd
00000120: 220d 00bb 59f6 1dbc 20cf df3b 11e5 1ebd
00000130: defe 21bd f3be 1fbc c7c9 203d f0a1 b4bb
00000140: eeb9 e33c 0e12 9ebc 7e7b a8bc d074 453a
00000150: 34e1 043d cc9a 803a 1920 4d3b b7b4 9bbc
00000160: 1e35 ad39 cc57 443a 0798 f23c ec65 793b
00000170: 970a 7a3b 0c1a 143c a6dd fe39 0e7f e93c
00000180: 8254 243c c229 34b9 51c3 d7bc 305a 963c
00000190: e734 293b 46dc f339 3f5f d33c 5654 ddbb
000001a0: 3d9f dcbc e4cc 2dbc 0896 0e3d 13cd a8bb
000001b0: 9aba 3ebc 8f80 023c 662a 20bd 5de0 07bd
000001c0: ff5c c8bc dff4 76bc 452d 4c3c d354 3dbd
000001d0: 2ad7 3ebc 1c38 843c 645a 3e3c b5e8 a33c
000001e0: b7e5 383d de59 3abc 469e 3c3a c8ad 213d
000001f0: 1606 a63a 722a 063d 6cc9 22bb 7d8f 07bd

_prop_layers.0._message_net.0.weight f4 [64, 80]
0.052220967 -0.0062725996 0.057983477 -0.07668604 -0.037438862 0.09007459 -0.061536007 -0.020910772
0.015848108 -0.06865508 -0.022712108 0.04409198 0.0014563664 0.07836721 -0.10038138 -0.042136617
0.028106112 -0.008164527 -0.03578782 0.058431674 0.02646714 -0.03020761 -0.08575317 -0.043098524
0.0029833303 -0.009732627 0.07975219 0.11616067 0.027156457 -0.08400768 0.03326652 -0.04420733
0.10795401 -0.052461468 -0.048145387 -0.005775805 -0.05567391 0.094666 -0.033105794 0.0044711023
0.0620919 0.07384055 -0.042441454 -0.033062767 -0.087283425 -0.033060726 0.102938935 0.10208059
-0.028603394 -0.0030661519 -0.065386824 0.100703865 -0.029976714 -0.037107423 -0.04716384 0.09883017
-0.10024914 -0.09488168 0.10994824 -0.00018261687 0.06598099 0.0833507 -0.0054004146 -0.04674852
-0.056644876 0.08556114 0.10031327 0.106532946 0.07817348 -0.07767995 -0.06430229 -0.09126941
0.057483666 0.054941144 -0.001440614 -0.019263834 0.020627977 -0.01228916 0.05930351 -0.0025808471
-0.040786114 0.08031076 0.014178592 -0.054492712 0.029116075 -0.04275663 0.008754796 0.083400115
-0.07200004 0.01797268 -0.03628029 0.10441061 0.0398273 -0.10493419 0.061170403 0.049278427
0.07579076 0.0770742 0.073048525 0.032753877 0.016205572 0.044599697 -0.0134227285 0.11021184
0.057820085 -0.0029593802 -0.084067374 -0.074975625 0.0723573 0.038375713 0.015809907 0.046684407
0.015111911 -0.038137775 0.022183988 -0.022106497 -0.0975187 -0.10025657 0.1039913 0.022684649
-0.10108348 0.11340283 -0.029095266 0.030104164 0.08855077 -0.09947281 0.04536979 -0.021366691
-0.09970669 0.05432405 0.04107016 -0.06404242 -0.09623148 -0.093859255 0.057214 -0.054822505
0.028183896 0.0047402885 0.053320017 -0.0991043 -0.0005135451 0.07570655 -0.1038501 -0.10946496
0.010196304 0.04275181 -0.06452933 -0.048091736 -0.10231936 -0.08232956 0.009171832 0.067996055
0.05898152 -0.00483148 -0.0006438464 0.05596602 -0.05136833 -0.0211844 -0.026402673 0.01592186
0.010163029 0.020029563 -0.03656514 0.040651 0.095588334 0.09782579 0.075967394 0.0017529823
-0.029283263 0.08698445 0.0674462 0.10531407 0.08271368 -0.10145318 0.07886226 -0.10048694
-0.092930965 0.07516365 0.06464376 0.08491021 -0.053687844 -0.09559603 0.10299842 0.003251789
0.012063477 -0.057075236 -0.09913431 0.080467075 -0.06491339 0.04295938 -0.05590975 0.06181556
0.010514548 0.019780995 0.09298768 -0.06307806 0.0065857414 0.08705322 0.10813672 -0.050328083
-0.016593084 0.042062964 0.001736726 0.0630109 0.06449447 -0.014898542 -0.020305086 0.045056302
0.08245472 0.05950794 -0.10079922 0.05444652 0.09714819 -0.0945083 0.09134108 -0.049214546
0.050256524 -0.042980306 0.030165251 -0.06371146 -0.07907523 -0.110800095 -0.099096164 -0.07196318
0.08924656 0.042459853 -0.016984306 0.07415229 0.053101458 -0.07912955 0.102900654 0.06632973
0.10035332 0.023271587 0.0010269197 -0.10375852 0.08488254 -0.09096451 -0.021813717 0.043277647
-0.012609515 0.055907182 0.09901097 0.032448947 -0.04558258 0.041397545 0.103123374 -0.08147344
0.084060535 -0.049990326 0.095015004 -0.0019399122 -0.052858498 0.09255688 0.04045211 -0.0019270917
00000000: a7e5 553d 618a cdbb 1580 6d3d 920d 9dbd
00000010: 7e59 19bd 0779 b83d 2e0d 7cbd 114d abbc
00000020: e4d3 813c 099b 8cbd be0e babc cb99 343d
00000030: 8ce3 be3a fd7e a03d c194 cdbd 7297 2cbd
00000040: ca3e e63c 82c4 05bc 4096 12bd 0d56 6f3d
00000050: 9ed1 d83c f375 f7bc 5c9f afbd 1488 30bd
00000060: fa83 433b 9975 1fbc 1e55 a33d a5e5 ed3d
00000070: 3877 de3c 380c acbd 7942 083d bf12 35bd
00000080: fe16 dd3d d6e1 56bd 1934 45bd f742 bdbb
00000090: 530a 64bd 3fe0 c13d f199 07bd 5382 923b
000000a0: 1354 7e3d b739 973d 17d7 2dbd d36c 07bd
000000b0: a7c1 b2bd af6a 07bd a6d1 d23d a10f d13d
000000c0: aa51 eabc 7ef1 48bb 87e9 85bd d43d ce3d
000000d0: ba91 f5bc f4fd 17bd df2e 41bd 7967 ca3d
000000e0: 6c4f cdbd 5451 c2bd 8b2c e13d d87c 3fb9
000000f0: 0b21 873d c6b3 aa3d f6f5 b0bb 607b 3fbd
00000100: 7504 68bd ae3a af3d 0b71 cd3d f22d da3d
00000110: 6b19 a03d aa16 9fbd ebb0 83bd 75eb babd
00000120: fe73 6b3d f709 613d fcd2 bcba 30cf 9dbc
00000130: 01fc a83c 7958 49bc 3de8 723d 6e23 29bb
00000140: 570f 27bd f879 a43d 534d 683c c033 5fbd
00000150: d684 ee3c 9321 2fbd 4770 0f3c aecd aa3d
00000160: c274 93bd 713b 933c a49a 14bd 3bd5 d53d
00000170: f321 233d bde7 d6bd d18d 7a3d 2dd8 493d
00000180: 3038 9b3d 14d9 9d3d 779a 953d ee28 063d
00000190: 8cc1 843c 2cae 363d 01eb 5bbc bfb6 e13d
000001a0: c1d4 6c3d 29f2 41bb 842b acbd d28c 99bd
000001b0: 1030 943d da2f 1d3d c783 813c 2638 3f3d
000001c0: f397 773c 5b36 1cbd 32bb b53c af18 b5bc
000001d0: e2b7 c7bd 5153 cdbd 64f9 d43d 28d5 b93c
000001e0: db04 cfbd be3f e83d 3259 eebc 029d f63c
000001f0: 1b5a b53d 67b8 cbbd acd5 393d 3309 afbc
00000200: 0533 ccbd e582 5e3d 2f39 283d ac28 83bd
00000210: 0315 c5bd 4839 c0bd 3a59 6a3d 908d 60bd
00000220: eae1 e63c 6c54 9b3b 1766 5a3d 32f7 cabd
00000230: 6e9f 06ba 090c 9b3d 5caf d4bd 2a2f e0bd
00000240: 660e 273c 861c 2f3d f427 84bd d7fb 44bd
00000250: d08c d1bd 669c a8bd 7445 163c 8441 8b3d
00000260: 9b96 713d 6451 9ebb cdc7 28ba a03c 653d
00000270: 9967 52bd e88a adbc 6b4a d8bc 8f6e 823c
00000280: d582 263c 0a15 a43c 54c5 15bd aa81 263d
00000290: d1c3 c33d e358 c83d cb94 9b3d 53c4 e53a
000002a0: 74e3 efbc e724 b23d 3c21 8a3d e7ae d73d
000002b0: ca65 a93d afc6 cfbd 8982 a13d 19cc cdbd
000002c0: 9752 bebd 66ef 993d f363 843d 67e5 ad3d
000002d0: c9e7 5bbd dac7 c3bd d6f0 d23d f71b 553b
000002e0: e4a5 453c b9c7 69bd ee06 cbbd eccb a43d
000002f0: 50f1 84bd 2df6 2f3d 9f01 65bd 5032 7d3d
00000300: 3645 2c3c c10b a23c 5370 be3d 122f 81bd
00000310: 34cd d73b f548 b23d c976 dd3d d224 4ebd
00000320: 38ee 87bc 374a 2c3d dba2 e33a dc0b 813d
00000330: ad15 843d 0419 74bc da56 a6bc f58c 383d
00000340: 05de a83d 99be 733d d26f cebd 5003 5f3d
00000350: a1f5 c63d 918d c1bd 0811 bb3d 3195 49bd
00000360: c9d9 4d3d 1e0c 30bd 1e1d f73c 277b 82bd
00000370: 32f2 a1bd 29eb e2bd eef2 cabd 6f61 93bd
00000380: e7c6 b63d 62ea 2d3d ac22 8bbc 28dd 973d
00000390: ea80 593d ac0e a2bd 94bd d23d e2d7 873d
000003a0: 0b86 cd3d 0ea4 be3c b599 863a 597f d4bd
000003b0: e6d6 ad3d 9a4b babd aeb2 b2bc e743 313d
000003c0: 2498 4ebc eefe 643d 43c6 ca3d 30e9 043d
000003d0: cdb4 3abd 7990 293d 5932 d33d 8cdb a6bd
000003e0: ee27 ac3d a8c2 4cbd 3a97 c23d a744 feba
000003f0: 2782 58bd 768e bd3d 1db1 253d 7896 fcba

_prop_layers.0._message_net.0.bias f4 [64]
0.07886669 -0.051304433 -0.105171666 -0.068499245 -0.050240837 0.10288581 -0.10014806 0.03001838
0.01362346 0.045201324 0.049625635 -0.105536856 -0.053661056 0.061550148 0.036231212 -0.045034204
-0.06129327 -0.0716442 -0.009970986 0.08216919 0.08123879 -0.10968708 0.10797356 0.017625654
0.09988923 -0.082477346 0.11021168 -0.031242218 -0.041437868 -0.01460044 -0.03432036 0.07951216
0.07465679 -0.04291598 -0.0735886 0.052137323 -0.06478115 -0.024851115 0.073284686 0.02084513
-0.046421096 -0.10244082 0.101648346 -0.061828587 0.004693001 0.031931218 0.08726939 0.1078329
0.017882254 -0.11175815 -0.028291423 -0.06448381 0.063350506 0.08592628 -0.07883402 0.057784908
0.07373882 0.014678616 -0.038490612 0.08537038 -0.010127309 -0.04675366 -0.0005821329 0.018141547
00000000: dc84 a13d 9924 52bd 3e64 d7bd 5549 8cbd
00000010: 56c9 4dbd ccb5 d23d 6d1a cdbd 1be9 f53c
00000020: ef34 5f3c 0625 393d 4044 4b3d b523 d8bd
00000030: b2cb 5bbd 021c 7c3d 2e67 143d c975 38bd
00000040: a70e 7bbd 32ba 92bd 595d 23bc 5248 a83d
00000050: 8660 a63d 9fa3 e0bd 3e21 dd3d ad63 903c
00000060: ba92 cc3d e2e9 a8bd a9b6 e13d aeef ffbc
00000070: c1ba 29bd af36 6fbc 8193 0cbd 45d7 a23d
00000080: a9e5 983d abc8 2fbd 9fb5 96bd f28d 553d
00000090: fbab 84bd 9194 cbbc 4816 963d 68c3 aa3c
000000a0: 0c24 3ebd 7ecc d1bd 022d d03d f93f 7dbd
000000b0: bfc7 993b 4fca 023d 4bba b23d 7fd7 dc3d
000000c0: ce7d 923c 75e1 e4bd 6ac3 e7bc 1610 84bd
000000d0: e9bd 813d 1efa af3d bb73 a1bd deaf 6c3d
000000e0: 6104 973d 947e 703c 55a8 1dbd aad6 ae3d
000000f0: 03ed 25bc c480 3fbd 479a 18ba 959d 943c

_prop_layers.0._message_net.2.weight f4 [64, 64]
0.08067447 0.07332328 0.026672976 0.06739765 0.09233479 0.0039440626 0.03631954 -0.0043689986
-0.014836154 -0.089568324 -0.08715533 -0.043173384 0.078779876 0.07621334 0.087286815 -0.023222161
-0.0692376 0.11633869 -0.03152182 0.0978295 0.04564873 -0.031445026 -0.022204842 0.09393245
0.041843947 0.01485542 -0.039950676 0.061626583 0.007801585 -0.114749156 0.035435844 0.04292393
0.023942653 -0.10579138 -0.100695685 0.10914692 0.066178896 0.099249855 0.03867495 0.059164576
-0.0772292 0.04115458 0.023745254 -0.019355224 -0.11053558 -0.09678418 0.005394145 -0.07253773
0.036872715 -0.025329325 -0.055806674 -0.06527322 -0.09769687 0.09544056 0.10541685 -0.036948208
-0.09536821 0.02989681 -0.030313713 -0.08908522 0.028801385 0.11301699 0.027438872 0.104649924
-0.08524912 -0.046881545 -0.10565578 0.03585581 0.033765294 -0.0726171 -0.11930391 0.1156047
-0.06308866 0.057293568 -0.040049855 -0.08733278 0.07831644 0.06924952 0.013657675 -0.09774985
-0.05400498 0.09928751 0.07279596 0.021050243 0.018488372 -0.0083705485 0.05036714 0.02503196
-0.11678633 0.093835816 -0.09384392 -0.003220403 0.023861455 0.10843205 -0.09150997 -0.060118664
-0.12633036 -0.11136212 0.10068502 -0.0019608166 0.013213913 -7.324941e-05 -0.00037736673 0.09197278
-0.032645736 0.110215686 -0.03282451 0.04956164 -0.06466922 -0.10100095 -0.077743925 0.09551029
-0.058867432 -0.062280346 -0.013803343 -0.04872005 -0.10358023 0.025050458 -0.079142995 -0.062411007
-0.10422223 0.015153235 -0.017119931 0.11240002 0.07320777 -0.11489671 -0.07247873 0.08294558
-0.069147125 0.113055885 0.0156162325 0.046398498 -0.016427612 0.09773257 0.08549073 -0.1050334
-0.09072325 -0.022058127 0.04645649 -0.097753435 0.03942979 0.044048652 -0.0921562 0.009372067
0.08373961 0.0095687 0.087847926 0.101965345 -0.124451704 -0.07890213 -0.015862616 0.038106535
0.085876025 0.11383348 0.08888466 -0.007903561 -0.03300368 -0.086857915 -0.1044419 -0.020795664
0.05235793 -0.059685286 0.0067280503 0.010042218 -0.03443736 -0.035643816 -0.055168744 0.017450685
0.016721394 0.088801056 0.06277618 0.057158373 0.04558509 -0.087344155 -0.07997936 0.11618592
-0.106312424 -0.009756217 0.02824051 0.11743326 0.025547253 -0.09141545 -0.069289096 -0.1210211
0.0776189 -0.05170095 0.01131838 0.05415972 -0.083512135 -0.06831368 0.11419036 0.11460937
0.003852188 0.018117856 -0.033810478 -0.07659136 -0.086588085 -0.039666668 0.12152199 -0.06298623
-0.04060699 -0.0641957 0.11536921 -0.0027771909 -0.00931459 0.048754144 -0.015558591 0.035432775
-0.07589037 -0.08259821 -0.028066188 0.05473405 -0.025679627 0.10682323 0.07297089 -0.0715761
0.039320864 0.12489289 0.019536532 0.110400185 0.065187745 -0.032853756 0.015579054 0.016182687
-0.004254327 -0.04362711 -0.06086372 0.016163463 0.025279758 0.029668363 0.0021232634 -0.103055
0.0025746778 0.04221522 -0.08966061 -0.11066722 0.06279945 -0.11876286 -0.068437405 0.109887876
-0.061763994 -0.053255927 -0.06671818 0.061593663 -0.09724451 -0.10814409 -0.06935931 -0.0014335446
0.0061978404 -0.055032242 -0.024062661 -0.043595143 0.04851768 0.102191515 0.05755372 -0.06215869
00000000: a838 a53d 842a 963d 4981 da3c c707 8a3d
00000010: 061a bd3d 323d 813b ccc3 143d d129 8fbb
00000020: 5713 73bc 996f b7bd 7e7e b2bd 93d6 30bd
00000030: 5857 a13d bd15 9c3d 6ec3 b23d 673c bebc
00000040: 71cc 8dbd fb42 ee3d 061d 01bd d55a c83d
00000050: 2afa 3a3d 80cc 00bd eee6 b5bc a85f c03d
00000060: 8f64 2b3d 2664 733c 52a3 23bd 286c 7c3d
00000070: 70a4 ff3b 9b01 ebbd 2d25 113d 01d1 2f3d
00000080: 6223 c43c 27a9 d8bd 8a39 cebd 6c88 df3d
00000090: cd88 873d 8243 cb3d a069 1e3d 8e56 723d
000000a0: 582a 9ebd b491 283d 6885 c23c d98e 9ebc
000000b0: 7a60 e2bd c936 c6bd 5ec1 b03b a98e 94bd
000000c0: d807 173d 727f cfbc 8a95 64bd f7ad 85bd
000000d0: 4c15 c8bd 5776 c33d cae4 d73d 0157 17bd
000000e0: 6850 c3bd 28ea f43c 7754 f8bc 5072 b6bd
000000f0: e2f0 eb3c 7475 e73d 7cc7 e03c b352 d63d
00000100: 1797 aebd dd06 40bd 0f62 d8bd 8bdd 123d
00000110: 7a4d 0a3d 46b8 94bd 9c55 f4bd 28c2 ec3d
00000120: a134 81bd a9ac 6a3d 510b 24bd 87db b2bd
00000130: 5f64 a03d b1d2 8d3d 71c4 5f3c 1331 c8bd
00000140: 5334 5dbd 4057 cb3d 0c16 953d 8f71 ac3c
00000150: ed74 973c a024 09bc c64d 4e3d d30f cd3c
00000160: ac2d efbd fe2c c03d 3e31 c0bd 660d 53bb
00000170: 1979 c33c 9f11 de3d 9469 bbbd fd3e 76bd
00000180: bf5c 01be d311 e4bd f333 ce3d 0b81 00bb
00000190: 2b7f 583c 7a9d 99b8 4ed9 c5b9 3a5c bc3d
000001a0: 89b7 05bd c3b8 e13d fe72 06bd 2501 4b3d
000001b0: 4c71 84bd 96d9 cebd 3538 9fbd e69a c33d
000001c0: fa1e 71bd ad19 7fbd 6b27 62bc ad8e 47bd
000001d0: df21 d4bd 9e36 cd3c b915 a2bd afa2 7fbd
000001e0: 7772 d5bd 4645 783c 193f 8cbc fb31 e63d
000001f0: f5ed 953d f74e ebbd ba6f 94bd 5fdf a93d
00000200: 029d 8dbd d889 e73d 3adb 7f3c 5a0c 3e3d
00000210: 3393 86bc 0328 c83d c415 af3d c01b d7bd
00000220: 1ccd b9bd 3fb3 b4bc 2949 3e3d f432 c8bd
00000230: 2281 213d 5c6c 343d 64bc bcbd 4c8d 193c
00000240: ac7f ab3d 09c6 1c3c 9de9 b33d 35d3 d03d
00000250: 89e0 febd 7197 a1bd 51f2 81bc 9915 1c3d
00000260: c5df af3d 8721 e93d 2909 b63d f07d 01bc
00000270: de2e 07bd 90e2 b1bd a3e5 d5bd ab5b aabc
00000280: 4575 563d 8f78 74bd fa76 dc3b 1d88 243c
00000290: 300e 0dbd 40ff 11bd 9ff8 61bd bdf4 8e3c
000002a0: 4efb 883c 54dd b53d cc90 803d e61e 6a3d
000002b0: 6eb7 3a3d 7ee1 b2bd 38cc a3bd e2f2 ed3d
000002c0: 54ba d9bd 8ad8 1fbc a458 e73c d980 f03d
000002d0: 7948 d13c 0638 bbbd 71e7 8dbd e9d9 f7bd
000002e0: a8f6 9e3d 60c4 53bd ba70 393c 95d6 5d3d
000002f0: 6908 abbd 0be8 8bbd a3dc e93d 51b8 ea3d
00000300: fd74 7c3b e66b 943c db7c 0abd eedb 9cbd
00000310: 1855 b1bd 8479 22bd 85e0 f83d edfe 80bd
00000320: 8453 26bd 0979 83bd b146 ec3d 8801 36bb
00000330: 399c 18bc 6db2 473d 76e9 7ebc f521 113d
00000340: 696c 9bbd 4029 a9bd 10eb e5bc d030 603d
00000350: 155e d2bc 23c6 da3d c371 953d 7e96 92bd
00000360: ea0e 213d d8c7 ff3d 140b a03c 7e19 e23d
00000370: 2781 853d a991 06bd 4a3f 7f3c 8e91 843c
00000380: e267 8bbb 57b2 32bd 3c4c 79bd 3d69 843c
00000390: 7f17 cf3c 110b f33c 7326 0b3b 800e d3bd
000003a0: edbb 283b dee9 2c3d fb9f b7bd 7fa5 e2bd
000003b0: ff9c 803d f139 f3bd e928 8cbd e50c e13d
000003c0: 3efc 7cbd e322 5abd 8ba3 88bd a349 7c3d
000003d0: 2128 c7bd a67a ddbd 410c 8ebd c6e5 bbba
000003e0: 4117 cb3b 7d69 61bd 0f1f c5bc d290 32bd
000003f0: 7aba 463d c949 d13d 73bd 6b3d 1c9a 7ebd
