classify/classifier.pth (torch, 18865 bytes, 4 tensors)

lin1.weight f4 [64, 64]
000000 a8 a6 1a 3d b0 0a d9 3d 10 92 0c 3c 60 c9 0a 3c
       0.037756592 0.105977416 0.008579746 0.008470863
000010 9c c7 47 bd c0 df 83 3b 00 98 9d 3d d0 1c 18 3c
       -0.048774347 0.004024476 0.07695007 0.009284213
000020 a0 8f b3 3b 90 1f 05 3d f2 b9 b3 bd f6 20 f4 bd
       0.005479768 0.032500803 -0.08775701 -0.11920349
000030 b2 e2 fa bd c0 83 43 bd 00 1d b9 bb 8c bd 64 3d
       -0.1225027 -0.04773307 -0.005649209 0.05584483
000040 c0 bf 0f 3d f8 94 91 bc 48 03 3d bd f4 1d 73 bd
       0.035094976 -0.01777123 -0.046145707 -0.059354737
000050 40 87 f7 3b 58 d2 38 bd 00 04 70 b9 88 6b 77 bd
       0.007553965 -0.045122474 -0.00022889674 -0.060405284
000060 00 bd 99 bb 84 20 1e bd e8 76 82 bd e0 d9 07 3d
       -0.00469172 -0.038605228 -0.06370336 0.033166766
000070 06 4b 8b bd 3c 3c f9 bd d8 09 8e bc a8 05 6c 3d
       -0.06801419 -0.12169692 -0.017338678 0.05762258
000080 34 3c 7e bd a4 5c 7c 3d 94 70 f1 bd 10 9f e2 3d
       -0.062069133 0.061611786 -0.11789051 0.11065495
000090 b0 9c da bd 80 62 67 3d 00 d3 5e 3a 08 b2 b6 3c
       -0.10674417 0.05649042 0.00085000694 0.022301689
0000a0 06 09 e0 bd 04 a6 e1 3d 48 11 02 3d 24 b1 fa 3d
       -0.10939221 0.11017993 0.031754762 0.12240818
0000b0 28 f7 1d 3d 52 36 af bd 10 f2 7c 3c 40 3a 83 bd
       0.038565785 -0.08555283 0.015438572 -0.06407595
0000c0 dc fc ef bd 70 7a a9 bc 00 c1 11 bd be d4 c8 bd
       -0.11718151 -0.020688266 -0.03558445 -0.09806202
0000d0 34 d0 4e bd 10 94 3a bc d8 69 4c 3d f8 36 c3 3c
       -0.050491527 -0.01138784 0.049905628 0.023829922
0000e0 e2 9f 84 bd ce 26 ff bd 14 a9 85 bd 1a 3b e6 bd
       -0.06475808 -0.12458573 -0.0652639 -0.112417415
0000f0 ae fe f1 3d fe e8 80 3d a4 1b b1 3d f4 ab ee bd
       0.118161544 0.0629444 0.0864785 -0.11653891
000100 46 d7 c0 bd b0 ed 4a bd d2 d7 db bd 0c a9 76 3d
       -0.0941606 -0.049543083 -0.10734524 0.06021981
000110 b6 05 8c bd 6c 59 b7 bd 8c 64 ff bd a0 7c 52 3c
       -0.06837027 -0.08952603 -0.1247035 0.012847096
000120 16 3d d5 bd 00 b8 9f bd 38 c0 44 3d 30 03 65 3c
       -0.10412042 -0.07798767 0.048034877 0.013977811
000130 48 61 42 bd 38 34 b9 bd 34 30 a0 bd 30 9d 76 bc
       -0.047456056 -0.09043163 -0.07821694 -0.015052125
000140 d8 35 e8 3c 38 ae 0e 3d ce 8c d7 bd e0 8d 99 bb
       0.028345987 0.034834117 -0.10524903 -0.0046861023
000150 38 ed fe bd 6c 03 e6 3d 9c b4 23 3d f2 37 95 3d
       -0.1244759 0.112311214 0.039967164 0.07286061
000160 d8 b2 98 bc f0 b5 80 bc f8 e1 9e 3c f8 ea 7e bd
       -0.018639967 -0.015711755 0.01939486 -0.062235802
000170 68 46 15 3d f8 13 27 bd a4 1c 50 bd 30 5f ef bd
       0.036444098 -0.040790528 -0.050808564 -0.116880774
000180 f4 5c ba bd 26 cb d4 bd 38 26 c4 bc 2e 24 dd 3d
       -0.09099761 -0.1039031 -0.023944005 0.10797916
000190 22 ac 96 bd c0 a8 88 3d 58 12 cf bd cc c0 72 3d
       -0.073570505 0.066728115 -0.10110921 0.059265897
0001a0 80 01 ad 3c 40 73 e8 bd e8 34 ce 3c f4 8c ea bd
       0.02111888 -0.11350107 0.025171712 -0.11452666
0001b0 78 2b 61 3d b6 5b e6 bd 54 91 e1 bd 58 44 f9 bc
       0.054973096 -0.11247961 -0.11014047 -0.030428097
0001c0 40 43 b0 3c 9c f3 fd 3d 14 33 79 3d 36 f0 cd bd
       0.021516442 0.123999804 0.060839728 -0.10055582
0001d0 c0 21 bc bd 20 72 ae bb 2c 36 c4 3d 00 20 1e b9
       -0.09186125 -0.0053236634 0.09580645 -0.00015079975
0001e0 b0 31 ca bc 40 f8 ea bb dc ce 51 3d a4 1e b0 bd
       -0.024681896 -0.007170707 0.051222667 -0.08599594
0001f0 e8 1c 42 bd 86 fb 9c bd b0 5d 30 bd 0c 27 4f bd
       -0.04739085 -0.07665162 -0.043058097 -0.050574347
000200 b0 88 45 bc 20 a7 e0 bd f8 82 83 bc 5a 0e d4 bd
       -0.012056515 -0.109693766 -0.016053662 -0.103543
000210 ac 9d ea bd b0 bf 2d bd 22 20 9a bd 68 d4 b9 bc
       -0.11455855 -0.042419136 -0.0752566 -0.022684291
000220 b8 d6 32 bd da 11 c4 3d 04 bd 30 3d 80 43 af bd
       -0.043661803 0.095737174 0.04314901 -0.085577965
000230 c2 f1 86 bd ae 83 ac bd 80 ea 17 bd 30 70 04 3d
       -0.065890804 -0.084235534 -0.03708887 0.032333553
000240 bc 37 59 3d b0 4a f9 bd 78 f1 d1 3d e0 aa ed bb
       0.053031668 -0.12172449 0.10251135 -0.007253036
000250 aa b1 97 bd a0 9d b9 bc 86 6f f6 3d 30 0a da 3c
       -0.074069336 -0.02265817 0.1203299 0.026616186
000260 70 b0 d5 3c e6 77 9f bd e4 97 45 bd dc 63 a6 bd
       0.026085109 -0.07786541 -0.048240557 -0.081245154
000270 cc 10 a4 3d c0 f9 97 bc f0 0d 0a 3d 48 d4 47 3d
       0.08011016 -0.018551707 0.033704698 0.04878643
000280 f8 e1 fa 3c be c7 df bd 48 de 06 3d b8 71 ff 3d
       0.030625328 -0.1092677 0.032926828 0.12472862
000290 00 e8 af b9 30 d6 f7 bc 7c 9c ab bd a0 50 d8 bd
       -0.00033551455 -0.0302535 -0.083794564 -0.10562253
0002a0 94 50 2c bd f0 e2 ca 3d 70 7f 73 3c d8 34 e3 bc
       -0.042069033 0.09906566 0.014861926 -0.027735159
0002b0 0c eb df bd 48 4b a4 bd 5c 60 82 bd f0 b2 f8 bc
       -0.109335035 -0.08022171 -0.06366035 -0.030358762
0002c0 68 43 44 bd e0 07 ad bc 78 09 ad bc b0 47 a4 bc
       -0.047915846 -0.02112192 -0.02112268 -0.020053715
0002d0 10 e6 30 bd 90 85 0f bc 64 39 30 bd 48 21 3d bd
       -0.043188155 -0.008759871 -0.043023482 -0.046174318
0002e0 be ab ef bd ba 0b 9c 3d 00 7b a8 bd 98 a7 e7 3d
       -0.11702679 0.07619424 -0.082265854 0.11311263
0002f0 30 05 13 bc f4 c5 7d bd a0 1d 81 3d 98 69 03 bd
       -0.008973405 -0.06195636 0.06304479 -0.032083124
000300 4f bb 51 3d 56 8c 9d bd 8a eb f2 3d 86 7b c9 bd
       0.051204022 -0.076927826 0.11861332 -0.09838013
000310 72 f0 aa bd 64 7a b2 3d 71 91 93 3d a5 d7 4b 3c
       -0.083466426 0.087147504 0.07205475 0.01244155
000320 8d 38 9e 3d 98 2d da 3d 2a 2b cd 3c ee 58 12 3c
       0.0772563 0.106532276 0.025044996 0.008932335
000330 12 7b e1 3d b5 26 98 bd 1a d1 b4 bd b7 29 a0 3d
       0.11009802 -0.07429258 -0.088289455 0.078204565
000340 27 d1 b0 bd 3d 98 ad bd 28 3c 21 3d 96 cc c0 3b
       -0.08633643 -0.08476303 0.03936401 0.0058837635
000350 53 64 cd bd 1c 3e d7 bd d4 33 98 3d 68 af 48 3c
       -0.10028901 -0.10509893 0.074317604 0.012248851
000360 de dd b6 3d 70 6a 68 bc 26 01 84 3d 6a 0c c6 3b
       0.089290366 -0.014185533 0.064455315 0.0060439603
000370 10 0d 05 be 5d 08 d3 bc c0 09 03 bd d8 d2 e7 3c
       -0.12993264 -0.025760824 -0.03199172 0.02829878
000380 10 0a 03 3d 98 22 97 3d ae 3a 05 be 96 e1 9a 3d
       0.03199202 0.07379645 -0.13010666 0.07562558
000390 9e 86 2e bd a2 cf e4 3d d6 10 de 3d 83 fa c6 bd
       -0.04260885 0.11172415 0.10843055 -0.0971575
0003a0 ce 97 f3 3d ec 61 87 bd 9f b2 a3 3d 98 17 c2 3d
       0.11894189 -0.06610474 0.07993054 0.094771564
0003b0 47 89 9f bd fa b2 c5 3d f7 68 b1 3d 55 18 95 bc
       -0.077898555 0.09653278 0.086625986 -0.018200079
0003c0 08 01 a6 bc 00 a5 0d 3c 5b 95 58 bd 86 5e bb bd
       -0.020264164 0.008645296 -0.05287681 -0.09148888
0003d0 48 a9 35 3c 1b 1a c5 3d 9e 0e 03 3d e9 f0 44 3c
       0.011087723 0.0962412 0.031996362 0.012020328
0003e0 1b 64 44 bd c8 91 a5 3d dd bf 34 bd 7b 83 a0 3b
       -0.04794703 0.08084446 -0.044128288 0.004898486
0003f0 e1 ff 64 3d 18 01 9d bd c8 4f d0 3a 94 8c aa bd
       0.055908088 -0.07666224 0.0015892917 -0.083275944

lin1.bias f4 [64]
000000 b8 a4 2b 3d 80 07 e5 3d ca d4 89 3d ec 0d 8b 3b
       0.041905135 0.11183071 0.067300394 0.004243603
000010 a4 84 61 bc f7 b9 f8 bc 02 6f c4 bc 4f a3 68 3d
       -0.013764534 -0.030362112 -0.023978714 0.05679637
000020 c8 3f f9 bc 41 12 c6 3d 9f 15 8c bd b1 c0 90 bc
       -0.030425921 0.096714504 -0.068400614 -0.017670007
000030 7f c0 0b bd 4d f6 f1 bc 7a dd d5 3d f1 8f 10 39
       -0.034119125 -0.02953639 0.10442634 0.00013786533
000040 c7 1c d1 bd 91 de ca 3d 72 11 96 bd 24 e4 68 bc
       -0.10210567 0.099057324 -0.07327546 -0.014214549
000050 9a 6a d6 bd 7c ef ad bd fd fd 6f 3d 5a 96 1c 3c
       -0.104695514 -0.08492944 0.05859183 0.009557331
000060 c7 8a f9 3d 7e b2 1e be 4d 57 cf 3d a8 b1 1a 3c
       0.12184673 -0.15497777 0.10124073 0.009441771
000070 dc 05 8b 3d 3b 7d 9b 3d 9b 88 bf 3c a4 5d 07 bd
       0.06788227 0.07592245 0.023380568 -0.033048287
000080 a8 ea 03 3c 4b 5f fe bd 67 0d 12 be 2c 62 cf bd
       0.008051552 -0.124205194 -0.14262925 -0.10126147
000090 98 5d 20 bd a5 90 15 3e 52 21 8a bd f2 2c b4 3c
       -0.039151758 0.14605959 -0.067446366 0.021994088
0000a0 12 c0 68 bc 87 fb 82 3b e8 24 93 bc cf 0d b8 bc
       -0.014205949 0.0039972696 -0.017961934 -0.022467522
0000b0 76 9d d9 3d f4 e1 b4 bd 26 67 e4 3d d2 c6 a9 bc
       0.106257364 -0.0883216 0.111524865 -0.020724688
0000c0 b2 b5 fb 3a e1 f2 27 bd 35 7f 17 bd 86 86 02 be
       0.001920393 -0.04100311 -0.03698655 -0.12746629
0000d0 26 39 3b 3d 90 dd 5c 3d 26 d8 fb 3d c0 bc 13 3d
       0.045708798 0.053922236 0.122970864 0.036068678
0000e0 e9 42 22 3d 9d 78 d4 3c d6 ac 33 be 1d 24 a8 3d
       0.03961459 0.02593642 -0.175464 0.08210013
0000f0 d8 d2 99 3d f1 38 bc 3d ef 41 08 3d a5 a1 39 3c
       0.075109184 0.09190548 0.033266004 0.011330043

lin2.weight f4 [2, 64]
000000 c0 f5 50 3d 40 4a 4b bd d2 a0 c5 3d 64 87 84 bd
       0.051015615 -0.049631357 0.09649815 -0.06471136
000010 52 73 df bc 18 40 6f 3d 0f 30 8d bd 40 f4 6f bd
       -0.027276669 0.058410734 -0.06893932 -0.058582544
000020 67 4a ef bd f1 63 98 3c 40 93 f5 bc 9a 6f 90 3d
       -0.11684113 0.018602343 -0.02997744 0.07052536
000030 b4 76 ed 3c f9 d9 e6 bd 34 5f d8 3d 41 61 57 3d
       0.028987266 -0.11272044 0.105650336 0.052582983
000040 0e ad 90 bd 92 24 fc 3c ae f4 c5 3d 33 f8 12 bc
       -0.070642576 0.030779157 0.096658096 -0.008970308
000050 ac 8a d8 bd 2e b0 90 bd 4e a8 f1 bd fa a1 43 bd
       -0.105733246 -0.070648536 -0.1179968 -0.047761895
000060 66 19 91 3d 4e d3 ee 3b 7f 41 98 bd a1 0f d7 3d
       0.070849225 0.007288373 -0.074343674 0.10501028
000070 38 04 4e 3d 91 f1 ad 3c dd 76 40 bc 62 fa d1 3d
       0.050296992 0.021233352 -0.011747089 0.10252835
000080 ba 07 bc bd 5e 5e e6 bd 69 3f 9a bd 94 2e 5a bd
       -0.09181161 -0.11248468 -0.07531626 -0.053267077
000090 86 70 e0 3d ab 4c 9a 3c 6d 7c 8a bd 5a a0 03 3e
       0.10958962 0.018835386 -0.067620136 0.12854138
0000a0 5f dc 09 3d bf 54 9a 3d e9 73 2b 3c 62 63 e8 bd
       0.033657428 0.07535695 0.010464647 -0.11347081
0000b0 67 04 66 bc 96 01 92 3d cc 3b 58 3d 8f d2 94 bd
       -0.014039136 0.07129209 0.0527914 -0.07266723
0000c0 1e 32 f2 bd c2 93 5f bd f7 32 8a bd 66 99 65 bd
       -0.11825965 -0.054584272 -0.06748002 -0.056054495
0000d0 9f 7b de 3d 6c bf 90 3c 67 f2 f7 3d ea 14 dd 3d
       0.108634226 0.017669402 0.121067815 0.10795005
0000e0 3d de b3 3d fc 90 99 bd 99 8f 41 3d 56 e4 f6 bd
       0.08782623 -0.07498357 0.047256086 -0.120552704
0000f0 6f 5b 81 bd 65 da d7 3d 7a 62 15 3d 14 c6 f1 3d
       -0.06316268 0.10539702 0.036470868 0.118053585
000100 08 de 91 bd a0 aa d6 bd 50 e7 58 3c 22 12 fa 3b
       -0.07122427 -0.10481763 0.013238743 0.007631556
000110 96 dd a2 bc 10 6e 7f bd 03 39 ed bd cc ac 53 3d
       -0.019881051 -0.062360823 -0.1158314 0.051678464
000120 a2 f3 ec bd bd 30 80 3d ee df 8b 3d e6 c2 d8 ba
       -0.11569907 0.06259296 0.068298206 -0.0016537576
000130 d8 c7 11 3c fb 88 ed bd 30 15 cf 3a ca 22 7a 3d
       0.008897744 -0.115983926 0.0015799161 0.061068334
000140 9b fe 5a 3d d8 0c b4 3d 95 82 8a 3c 45 d0 a0 bd
       0.053465467 0.08791512 0.01690797 -0.07852224
000150 f8 35 51 3d 7a 80 b3 3c ef 5e 36 3d 67 d9 a9 3c
       0.05107686 0.021911848 0.04452413 0.020733548
000160 78 70 bd 3d 53 4c cb 3d 97 c6 b2 3d dd 01 3b bb
       0.09249967 0.09926667 0.08729284 -0.0028535046
000170 42 32 b1 bd cf 2c be 3c 23 e4 78 bd ea f5 5f 3d
       -0.08652164 0.023214726 -0.060764443 0.05467788
000180 66 6d a8 bd 24 17 ec 3c 7a 9b e3 bc fa 35 e0 bd
       -0.08223991 0.028819628 -0.027784098 -0.10947795
000190 ea 68 b8 3d a3 b5 90 bc 28 bd f4 3d 4e 7b b8 3d
       0.09004386 -0.017664736 0.11950141 0.090078935
0001a0 a7 2e cc bd d7 6a b0 3d a2 3a e9 bd cd 4d 30 3d
       -0.09969836 0.08614128 -0.113881364 0.043042947
0001b0 78 e9 eb 3d 92 c9 ee 3d 45 3f bd bd f5 4b e4 3c
       0.1151914 0.1165954 -0.09240583 0.02786825
0001c0 4b 5a 43 3d 7e 65 c9 bd 1a 5b d7 3c f7 60 5f bd
       0.047693532 -0.09833811 0.026288558 -0.054535832
0001d0 8d 47 94 3c 8f 75 ae bd db c7 da bd 80 b8 bc 3d
       0.018100524 -0.08518516 -0.10682651 0.09214878
0001e0 f9 19 4f 3d 83 35 f5 bc 51 d3 5d 3d 91 08 cd bc
       0.05056188 -0.029932743 0.054156605 -0.025028499
0001f0 21 62 dc 3d 5b ae 5c bc 40 62 ba bd 5a 58 cb bd
       0.10760904 -0.013469304 -0.09100771 -0.09928961

lin2.bias f4 [2]
000000 04 92 2b 3e 4d 9e dd bd
       0.1675492 -0.10821209
