classify/encoder.pth (torch, 178639 bytes, 40 tensors)

conv1.nn.0.weight f4 [64, 30]
000000 47 ee 21 3d f0 f3 2f bd 40 77 10 3e 45 4b 07 be
       0.03953388 -0.042957246 0.1410799 -0.13212307
000010 c5 ea 39 be d2 37 3f 3c 10 38 3b 3e de 20 17 be
       -0.18155964 0.011671023 0.18283105 -0.14758632
000020 03 2b 7c bd 16 2c 92 bd 67 00 9a bd 7e b4 56 bc
       -0.061564457 -0.07137315 -0.07519608 -0.013104556
000030 09 b2 cc 3d 53 48 20 bc 9f c5 c8 3d 88 fe 3e 3e
       0.09994895 -0.009782868 0.09803318 0.18651783
000040 50 32 8c 3d 02 28 a8 bd dc 16 3d be ec 73 c3 bc
       0.06845534 -0.08210756 -0.18465751 -0.023858987
000050 70 cf 2e be 81 b5 95 3d de b8 0e be de d6 dd bb
       -0.17071319 0.0731001 -0.13937709 -0.006769999
000060 5c 37 21 3e 49 a7 f3 bc bb 16 b0 bc 43 89 0f bd
       0.15743774 -0.029742854 -0.021495214 -0.035043012
000070 0b 86 fe 3c f5 6b ba 3d 1a 81 b3 bd 02 1f 21 be
       0.031069776 0.091026224 -0.087648585 -0.15734485
000080 0c d1 0d be 0e 3c 64 3c af 38 64 3d 4f 65 47 bb
       -0.13849276 0.013930334 0.05571812 -0.0030425375
000090 6f cf e7 3d 2e 50 1d 3e 8e 1f 70 bd 62 da 7f 3d
       0.11318862 0.15362617 -0.058623843 0.062464125
0000a0 cc 0b 97 3d 3f 65 f8 3b 2e 50 e1 3d 13 29 59 bd
       0.07375297 0.007580429 0.11001621 -0.053017687
0000b0 73 08 b7 bd 87 b7 0f bc a0 67 42 bc 0a 38 35 3e
       -0.089371584 -0.008771784 -0.011865526 0.17697158
0000c0 87 77 fa bd 59 22 df 3d 95 9f fc 3c 44 d1 ba bd
       -0.12229829 0.10895223 0.030837813 -0.091219455
0000d0 69 58 10 3e da 0d 81 bc ae 3a 90 bd ab 6d 52 3d
       0.14096226 -0.015753675 -0.07042442 0.05137412
0000e0 f5 42 3e be a2 19 7d 3d 3f 52 c0 3d 08 48 11 be
       -0.1858023 0.061792023 0.09390687 -0.14187634
0000f0 50 8d 18 3e 91 0e 17 be 06 9a 1b 3e 7e ee 2d be
       0.14897656 -0.1475165 0.15195474 -0.16985509
000100 aa bd fe bd 9e e7 9d bd ad 42 43 3d c8 ea 58 bd
       -0.12438519 -0.07710193 0.04767101 -0.05295828
000110 e7 cf a5 3c 27 80 e9 3d cf fe 0e bd a9 df 3e 3c
       0.020240737 0.11401396 -0.034910973 0.011650004
000120 43 a7 8a bd 16 1c 08 be ce 82 35 3e b1 fc 2c 3d
       -0.06770184 -0.13291964 0.1772568 0.042233173
000130 20 d2 05 be 9a 12 86 bc 0b 14 7d bd 38 c0 24 be
       -0.13068438 -0.016366292 -0.061786693 -0.1608895
000140 ef d7 50 3d 4a eb 2c 3e c0 2d ce bc 04 3c e4 bc
       0.05098718 0.1688663 -0.0251683 -0.027860649
000150 4f 34 55 3d 5d a9 1d 3e 86 2c 35 3e ee 54 0a be
       0.05205184 0.15396638 0.17692766 -0.1350896
000160 fe 4a 06 3e 6d e9 aa 3d 30 5f ac bc 43 d4 fe 3c
       0.13114545 0.08345304 -0.021041483 0.031107074
000170 d5 09 ba 3c 7c fa a4 bd 9c 63 b2 bc 12 80 d5 bd
       0.022709766 -0.080555886 -0.021776013 -0.10424818
000180 f2 aa 2d be 88 8f 06 be cb bb d8 bd b9 e9 97 bd
       -0.16959742 -0.1314069 -0.10582694 -0.07417626
000190 68 17 de 3d 35 e0 c5 3c 4f 75 8b 3d 61 b6 cb bd
       0.10844308 0.024154762 0.06809484 -0.099468954
0001a0 f6 9c f2 bd dc 9f 25 3e d7 03 74 3d 60 2d f9 3d
       -0.11846344 0.16174263 0.059573974 0.12166858
0001b0 ad 38 5f 3d 1c 40 f4 bd a1 80 84 bd 43 a6 29 3d
       0.05449741 -0.119262904 -0.064698465 0.041418325
0001c0 64 ed b7 3c 01 87 dd 3d 9f 14 80 3d f8 87 2d 3d
       0.022452064 0.108167656 0.06253933 0.042365998
0001d0 58 48 77 bd ae bc 0a 3e 23 c2 33 3e a6 24 1b be
       -0.060371727 0.13548538 0.17554526 -0.15150699
0001e0 c2 24 1a 3d fc 9d 32 be be 81 62 3d d0 38 15 3d
       0.03763271 -0.17443079 0.055299513 0.036431134
0001f0 98 4c 01 be df 23 f3 3b 3e ea b3 bc 9f 47 31 3e
       -0.12626874 0.0074200477 -0.021962281 0.17312478
000200 eb a0 cb 3d 94 99 61 3d 65 77 1e 3d 3c 99 ba bc
       0.09942802 0.055078104 0.038688082 -0.022778146
000210 00 cf 05 be 79 e5 1e 3e f4 36 25 3e 0e 1d 81 3d
       -0.13067245 0.15517224 0.16134244 0.0630437
000220 60 7c 00 be 0e fa 18 be 17 cb df bd 87 58 25 be
       -0.12547445 -0.14939138 -0.10927408 -0.16147052
000230 2a 20 3e 3e f0 7b 15 3e 77 da 06 3e be 72 40 bd
       0.18566957 0.1459806 0.13169275 -0.046984427
000240 99 67 f3 bd 6d 48 a1 bd 90 90 06 3e 73 37 f2 3d
       -0.11884994 -0.07875142 0.13141084 0.11826982
000250 0f 87 f3 3d d3 f9 2b be 2b 3f dc 3d df d1 0f bd
       0.11890995 -0.16794519 0.10754236 -0.035112258
000260 d1 d9 13 be 43 0a 41 3b ec e5 10 bd d9 0d 73 3b
       -0.14438559 0.002945558 -0.03537552 0.0037087111
000270 5b 5f 9b 3c ab 4f 2d 3e d5 57 9d 3d bd 18 2c be
       0.018966367 0.16924922 0.07682768 -0.16806312
000280 f1 a9 1a 3e 54 28 e4 bc b5 ab cc 3d 82 1e 9a 3b
       0.1510389 -0.027851261 0.09993688 0.004703344
000290 bc 6b 8c 3d 8d ae 83 3d 40 ed c1 3d cd 72 3d bd
       0.06856486 0.06429777 0.0946908 -0.04625206
0002a0 31 cb 2d 3d 2b 06 f4 3d e7 99 f9 bd 77 b2 1a bd
       0.042430107 0.11915239 -0.12187558 -0.037767854
0002b0 ff b5 45 3d ed 36 1c 3e 51 21 02 3d 41 4d 1e bd
       0.048269268 0.15255328 0.031770054 -0.038647894
0002c0 db f4 13 3e 30 80 7f 3d 3a 58 c3 3d 8d 0a 05 3d
       0.14448874 0.06237811 0.09538312 0.032480765
0002d0 80 72 3b bd eb bb 68 3d 42 b8 a6 3d da 5a 01 be
       -0.045763493 0.056819838 0.08140613 -0.12632313
0002e0 6b ae 1d be 5d 4a 0d be db d2 72 3c 77 40 2b be
       -0.15398566 -0.13797899 0.01482078 -0.1672381
0002f0 01 3b 1e 3e c3 19 d3 3d e5 eb 3f 3d 07 98 0c 3e
       0.15452196 0.10307648 0.046855826 0.13729869
000300 80 50 0b be 35 0e 1b bd d8 e6 2e be 9c 9f 2f be
       -0.13604927 -0.037855346 -0.17080247 -0.1715073
000310 12 73 db 3d 0d 7b 17 be f4 bd 88 3d d6 3c e2 bd
       0.10715307 -0.14793034 0.06676856 -0.1104676
000320 e4 2a a9 3a c1 d9 b5 bc 25 6a 23 be 6f 2d 2e be
       0.0012906459 -0.02219856 -0.1595846 -0.17009519
000330 75 d8 15 3d 03 7f 4d 3d 32 cd 0f 3e 5d f3 09 3d
       0.036583383 0.050169956 0.1404312 0.033679355
000340 f5 3a 9f bd 1f 96 f6 3d fb 7a f5 3c 37 62 12 bd
       -0.07774917 0.12040352 0.029965868 -0.035738196
000350 44 8b d7 bc ff 89 e0 bd 47 aa 19 be b4 5b 07 bd
       -0.026311524 -0.10963821 -0.15006362 -0.03304644
000360 df 88 f1 bc 24 27 00 3e 9a 30 37 3d 6c 02 66 bd
       -0.02948421 0.12514931 0.044724084 -0.056154653
000370 0c 28 4b 3d 7d 44 19 be 68 11 2b 3d bc 87 3e 3d
       0.04959874 -0.14967532 0.041764647 0.046516165
000380 9b 69 1e 3e c9 a5 ea 3d 22 a6 0c 3d 48 46 a2 ba
       0.15469973 0.11457402 0.034338124 -0.0012380565
000390 2b f3 76 3d 81 da fd 3d 55 d9 d5 3d 08 53 00 3d
       0.060290497 0.12395192 0.104418434 0.031329185
0003a0 f8 78 96 3d cc 59 38 3e 73 99 35 3e 51 e1 c6 bb
       0.07347292 0.18003005 0.17734317 -0.0060693403
0003b0 c6 b4 ca bc 06 4a 9c 3d 0e a1 34 3d b0 6e d2 3d
       -0.024744403 0.07631306 0.044098906 0.10275018
0003c0 47 9b 3c 3e 82 a8 15 3d 52 4e e3 bc 5c cc 2f be
       0.18418609 0.036537655 -0.027747307 -0.171678
0003d0 93 35 f8 3c 0d 5f 30 be f3 ed 22 3e d8 77 60 3d
       0.030298984 -0.17223759 0.15911083 0.054801792
0003e0 84 62 af bd e0 78 3e be 28 0d 02 be d1 ee c6 3d
       -0.08563712 -0.18600798 -0.12700331 0.09713519
0003f0 b6 3d 02 3e d1 a1 87 3d bd 27 1e be c6 9f 3d 3e
       0.12718853 0.06622661 -0.15444846 0.1851798

conv1.nn.0.bias f4 [64]
000000 50 ab 11 be 56 20 22 bc cb b4 9a 3d cd 9d 4a bc
       -0.14225507 -0.009895405 0.07554015 -0.012366724
000010 82 db c5 bc 89 fd 27 3e e1 ac 12 be 87 9d 38 be
       -0.024152521 0.1640531 -0.1432376 -0.18028842
000020 de a3 e8 bd 6e 29 91 bd 3b de ef bb 16 08 e6 3d
       -0.1135938 -0.0708798 -0.007320193 0.11232011
000030 8f 6a 1f 3e fa 98 a3 bd 43 16 9b 3d 5f f8 10 3e
       0.15567993 -0.07988162 0.075726055 0.14157246
000040 0f 6b 0a be f3 a4 39 be d6 7f 11 bd 3c 3a 37 be
       -0.13517402 -0.1812933 -0.035522304 -0.17893308
000050 bc a1 23 3d 59 79 33 3e 68 4a 07 3e 15 fa 2f be
       0.039949164 0.17526759 0.13211977 -0.17185242
000060 7e 2d 02 3e d5 01 94 3d 6c a5 0f bc 53 08 db 3c
       0.12712666 0.07226912 -0.008767467 0.026737368
000070 2b f1 84 bd c7 52 31 3e 53 4e b9 3d 53 a8 a9 bd
       -0.06491312 0.17316733 0.09048142 -0.082840584
000080 59 52 9c bd 4e e6 a3 3d 0f b3 eb bd 7d c9 33 3d
       -0.07632894 0.080029115 -0.11508762 0.043893326
000090 52 8d 3e be 2b 15 29 3e c5 5c 10 3d cc b4 b9 bd
       -0.18608597 0.16511981 0.035244722 -0.090676874
0000a0 ec 9f 00 be 6d dd 1e be 08 c9 35 be 03 18 a5 3d
       -0.12561005 -0.15514155 -0.17752469 0.080612205
0000b0 04 ae 08 3d f5 b7 22 3e 58 59 34 3d 56 a1 28 be
       0.03336908 0.15890487 0.044030517 -0.16467795
0000c0 24 4b 21 bd fa 8e 23 3e 59 12 65 bc e1 34 07 3d
       -0.0393783 0.1597251 -0.013981425 0.033009414
0000d0 93 b7 2f be 31 97 b4 3d 02 55 8c 3d ca 47 7a bd
       -0.17159872 0.088179 0.068521515 -0.06110362
0000e0 d3 fb 8b b9 1d 71 db bd 87 c1 1d 3e 02 27 1b 3e
       -0.0002669977 -0.10714934 0.15405856 0.15151599
0000f0 91 e8 16 be 1e 36 03 bd 30 36 24 be e7 48 84 bc
       -0.14737155 -0.032034032 -0.16036296 -0.016148044

conv1.nn.1.weight f4 [64]
000000 d6 59 80 3f 6c 04 80 3f 06 9f 7e 3f b7 95 80 3f
       1.0027416 1.000135 0.994614 1.0045689
000010 38 ae 7f 3f e6 21 7f 3f f8 98 7d 3f cb 0e 7f 3f
       0.9987521 0.996611 0.99061537 0.9963195
000020 d1 af 80 3f 63 a3 80 3f 91 5e 80 3f f8 9d 7d 3f
       1.0053655 1.0049862 1.0028859 0.99069166
000030 91 c3 80 3f d2 a4 7f 3f 94 a5 80 3f ad 86 81 3f
       1.0059682 0.9986087 1.005053 1.0119225
000040 7f 95 7e 3f 92 5e 80 3f 75 66 7d 3f 20 57 7f 3f
       0.9944686 1.002886 0.9898446 0.9974232
000050 97 df 7d 3f 15 21 80 3f f5 1d 7e 3f f0 11 81 3f
       0.99169296 1.0010096 0.9926446 1.0083599
000060 da bf 7d 3f a6 19 81 3f bc 91 7f 3f e1 5b 80 3f
       0.9912087 1.0085952 0.9983175 1.0028039
000070 da a7 80 3f 9b a9 81 3f f7 c3 80 3f 5e 91 80 3f
       1.0051224 1.0129884 1.0059804 1.0044363
000080 b3 38 7e 3f 1b 33 80 3f 11 ad 80 3f 49 5b 80 3f
       0.99305266 1.0015596 1.0052816 1.0027858
000090 0e 10 7f 3f b9 a6 81 3f 7d 88 7e 3f d7 b7 80 3f
       0.9963387 1.0129005 0.99427015 1.0056103
0000a0 f3 37 7d 3f 31 8c 80 3f 89 c7 7e 3f 26 91 81 3f
       0.98913497 1.0042783 0.99523216 1.0122421
0000b0 a6 dd 7e 3f 6b 7a 7e 3f 3b a1 7e 3f 62 0a 7f 3f
       0.9955696 0.99405545 0.9946477 0.9962522
0000c0 b4 52 81 3f 32 b0 81 3f 97 b1 7d 3f c7 ec 80 3f
       1.0103364 1.0131896 0.99099106 1.0072259
0000d0 76 c8 80 3f 09 13 7f 3f 93 0c 7f 3f de 6d 7f 3f
       1.0061176 0.9963842 0.9962856 0.9977702
0000e0 7b ed 80 3f b3 76 80 3f 07 94 7c 3f d8 34 80 3f
       1.0072473 1.0036224 0.9866337 1.0016127
0000f0 c4 e6 7e 3f 0f 97 7e 3f 30 00 81 3f ff de 80 3f
       0.9957087 0.9944925 1.0078182 1.0068053

conv1.nn.1.bias f4 [64]
000000 3e 7e ac bb 44 dc bd bb 44 d0 d7 bb df c1 ff ba
       -0.0052640727 -0.00579408 -0.0065861065 -0.0019512734
000010 ca e1 52 3b fc 5b c6 bb e7 d5 d9 bb ad 7f 31 3b
       0.0032178038 -0.006053446 -0.0066478136 0.0027084157
000020 9c 44 b9 3b e4 a5 12 ba d8 f6 8b ba 28 cb 33 bb
       0.005653931 -0.00055941776 -0.0010678424 -0.0027434323
000030 54 d0 eb 3b 0c d1 1e 3c 0e d0 a9 3b 7d 8b 15 3c
       0.0071964655 0.009693395 0.0051822728 0.009127495
000040 e2 27 9a bb fc 24 1e 3b 89 c8 1d bc 44 37 b2 3a
       -0.0047044614 0.002413093 -0.009630331 0.0013596793
000050 fa c5 e6 bb a8 07 99 3b e7 49 eb bb a4 c3 0b 3c
       -0.0070426436 0.004670102 -0.0071804407 0.008530531
000060 db 84 0c bc 8e 2d 37 bb fa 24 5c bb 58 e6 2a 3c
       -0.008576597 -0.0027950737 -0.0033591376 0.010430895
000070 97 f1 a2 3b ed 92 ec 3b 96 fd 8f 3b db 18 0f 3c
       0.0049726474 0.0072196634 0.0043942435 0.008733953
000080 f1 6e 5e bb 9f 49 9e bb 08 4c d0 3b 5e 02 af bb
       -0.0033940638 -0.0048305537 0.00635672 -0.0053408584
000090 72 ce 9a bb 75 63 0d 3c a9 fe a9 bb 00 23 b8 3b
       -0.004724317 0.008629669 -0.0051878286 0.0056194067
0000a0 d5 0c f2 bb 2c 7b a9 3b d1 bd a2 bb fa a0 b6 3b
       -0.0073867836 0.005172154 -0.0049664755 0.005573389
0000b0 af 90 b5 bb 81 d1 ca bb b9 ea ad bb 1b 74 c1 3b
       -0.0055409293 -0.0061895256 -0.005307522 0.0059037334
0000c0 5b c4 29 3c 9f e8 e2 3b 14 5e 02 bc b6 9e 9d 3b
       0.010361756 0.0069247033 -0.007957 0.0048101796
0000d0 07 36 20 bc 63 fb 9d bb 9e ed 95 3b 61 b3 88 bb
       -0.009778506 -0.0048212274 0.0045754453 -0.0041717743
0000e0 8b 75 dc 3b 2d 36 6e 3b a9 bf 88 bc 01 81 1c bc
       0.0067278794 0.003634821 -0.016692953 -0.009552241
0000f0 38 f6 09 bc 0d 1f d5 bb 08 c7 14 3a da 4b 5f 3b
       -0.0084205195 -0.0065039457 0.000567541 0.003407231

conv1.nn.1.running_mean f4 [64]
000000 ac 5e 2d 3f ff d5 d5 be 76 1d 8d 3f 41 64 01 3d
       0.6772258 -0.4176483 1.1024616 0.03158975
000010 16 e3 a4 3e b1 cc 58 3f 2d ca 14 bd 00 b8 61 3f
       0.32204503 0.84687334 -0.036325622 0.88171387
000020 04 42 dd be ad 58 8b bf cd 3e 50 bf b2 69 97 3f
       -0.43214428 -1.0886437 -0.81345826 1.1829131
000030 95 65 01 3f cc e2 85 3e 1f cd ed 3e 86 90 fa be
       0.50545627 0.26149595 0.46445557 -0.48938388
000040 9c dc 85 3e 41 95 3e bf e1 1b ca bf 9d 2a 51 bf
       0.26144874 -0.74446493 -1.5789758 -0.8170565
000050 b7 ad 81 3f b8 05 25 bf ab ec f2 3e 30 6c d5 bf
       1.0131139 -0.6446185 0.47446188 -1.6673641
000060 d7 46 f1 bf 52 aa 50 3f f8 2d 7e bf eb 1e 76 3f
       -1.8849744 0.8150989 -0.9928889 0.9614093
000070 59 4e 30 bf bf c7 ba 3e f6 4c 43 3f cf fd 03 3f
       -0.6886955 0.3648052 0.7628931 0.51559156
000080 0b 42 2c 3f dc 6a 9a be 44 ea 87 be b2 7c e5 3e
       0.67288274 -0.30159652 -0.26545918 0.44821697
000090 af be 1a 3f 07 f3 de 3e 74 eb 91 be 88 6a 33 bf
       0.6044721 0.4354479 -0.2849995 -0.7008443
0000a0 00 97 3b bf 5e 68 67 bf 04 ec ab bf 60 02 2c bd
       -0.7327728 -0.90393627 -1.3431401 -0.041994452
0000b0 fd c2 11 bf 2e c6 35 be d4 b8 0d bf 6d 11 4d bf
       -0.56938154 -0.17751381 -0.5536015 -0.80104715
0000c0 a0 95 a5 bf 75 20 cc 3f 50 b3 8f 3f 7d ed 4b 3e
       -1.2936287 1.5947405 1.1226597 0.19914813
0000d0 5d a0 3d 3f ac ec 5f 3d d0 36 a0 3e cb d2 27 be
       0.7407282 0.054669067 0.3129182 -0.16389005
0000e0 ac ee 4f bf ef 2b 42 bf 1b ef 33 bf 82 ad 41 3f
       -0.8122356 -0.7584829 -0.7028672 0.75655377
0000f0 bb d7 c0 3f 26 d3 89 3e 90 9b d9 3e 04 99 1e 3f
       1.5065836 0.26918906 0.42501497 0.61952233

conv1.nn.1.running_var f4 [64]
000000 73 eb a5 42 a2 ec 99 41 80 af 39 43 cf 72 b8 3e
       82.95986 19.240543 185.68555 0.36025092
000010 e1 96 a3 3f 8e 10 01 42 31 ee cd 41 92 f3 d7 42
       1.278042 32.266167 25.741304 107.97572
000020 1a 6a 5a 41 d9 82 20 42 3b bb 5b 40 ed 7a 2f 43
       13.650904 40.12778 3.4333026 175.48018
000030 3c cc 92 3e 53 7f c3 3f 48 d2 0b 41 55 53 82 3f
       0.28671443 1.5273231 8.738838 1.0181681
000040 57 d2 e4 41 3c 60 a3 42 56 c1 d3 42 a6 34 61 42
       28.602705 81.68796 105.87761 56.301414
000050 94 b3 c5 42 1a b4 b8 41 0e 98 b5 41 c3 93 2b 43
       98.85074 23.08794 22.699245 171.5772
000060 72 b8 83 43 2d fc d7 41 b8 c2 91 41 02 ea 3d 42
       263.44098 26.998133 18.220078 47.478523
000070 90 c2 b1 41 d3 95 b4 41 79 5b 20 42 f5 f8 c6 41
       22.220001 22.573156 40.08933 24.871561
000080 25 82 82 40 dd 31 77 40 2c 71 32 40 19 12 bf 41
       4.078387 3.8624184 2.7881575 23.883837
000090 2a 90 26 41 ec bc b8 3e f4 c3 b1 41 4e e0 d5 41
       10.410196 0.36081636 22.22068 26.734524
0000a0 05 33 3b 40 f5 53 e7 41 c6 f4 85 42 af e6 a1 40
       2.924989 28.915995 66.97807 5.0594096
0000b0 2c a0 b9 41 97 03 90 41 af 0d 59 42 94 b8 ee 40
       23.203209 18.001753 54.263363 7.4600315
0000c0 fe cb a3 42 a5 dc 0a 43 a1 39 4a 42 c6 0e 06 3f
       81.89842 138.8619 50.55628 0.5236629
0000d0 3d 99 18 41 38 b3 b2 40 b2 c3 88 40 72 ec cc 3e
       9.537412 5.5843773 4.2738886 0.40024143
0000e0 7d aa e0 40 a2 ac 22 42 5e 95 ba 41 9d 0c 9c 41
       7.0208116 40.668587 23.322933 19.506159
0000f0 25 86 dc 42 d8 75 26 40 ff 08 dc 41 64 9b 0d 42
       110.262 2.6009426 27.504393 35.40175

conv1.nn.3.weight f4 [64, 64]
000000 e5 ae 51 3c ef 4b 77 3d 9c 5b a4 3d 1e 3d 8e bd
       0.012798046 0.06037515 0.080252856 -0.06945251
000010 34 be 95 bd 8b b0 99 3d 35 a0 98 bd 39 45 dc 3d
       -0.07311669 0.07504376 -0.07452432 0.10755391
000020 96 9b 35 3c 16 cc 58 3d 31 87 54 bc 98 4f aa bd
       0.011084458 0.052929007 -0.012971685 -0.083159626
000030 f3 13 41 bd 08 d5 c7 3d 73 95 7f bd f6 67 a4 3d
       -0.047138166 0.09757429 -0.062398385 0.080276415
000040 83 1d 26 bd 6b 21 f6 3d 43 17 e7 3d 02 76 9d bd
       -0.04055549 0.12018093 0.11283734 -0.07688524
000050 0b 86 9f 3c 6f f0 ad 3c dc 6f 93 bd 40 c9 80 bd
       0.019473096 0.021232812 -0.0719907 -0.062883854
000060 bb 95 96 bd 43 19 5c bd 16 71 ef 3d 1c 4e 51 bd
       -0.073527776 -0.05373503 0.11691491 -0.05109988
000070 c6 9f 97 bd f9 a6 d6 bc 9c 09 75 bd 58 69 09 3c
       -0.07403521 -0.026202666 -0.059823617 0.008386932
000080 8f e8 6d bd 09 9b e5 bd 62 9e 1a bd c1 38 b8 bd
       -0.058083113 -0.11211211 -0.037748702 -0.089952
000090 2c e8 3e bc b1 9f 29 bd 38 5d 97 3c d6 57 a5 3d
       -0.011652034 -0.04141206 0.018477067 0.08073394
0000a0 b7 b7 e9 bd 2a f8 90 bd 00 5f 01 3e e1 90 f2 bd
       -0.11411994 -0.070785835 0.12633896 -0.1184404
0000b0 61 db aa 3d 07 16 8f bd e9 b0 df bd c3 73 5c 3d
       0.083426245 -0.06986623 -0.10922415 0.053821336
0000c0 7f 99 11 bc 84 9a 92 3d d5 cd 63 3d f0 ef 7f bc
       -0.008886694 0.07158378 0.05561622 -0.01562117
0000d0 25 79 11 bd 63 39 f1 3d 57 e5 c6 3d e0 22 37 bd
       -0.035515923 0.11778524 0.09711712 -0.044710994
0000e0 bc 58 89 bb e4 37 f6 3d 80 58 63 3d 78 0f c1 3d
       -0.004191486 0.12022379 0.055504322 0.094267786
0000f0 57 17 a1 bd 0f f5 30 bd e2 a5 d7 bd 33 3d 4a bc
       -0.0786578 -0.043202456 -0.105296865 -0.012343693
000100 6d f1 81 3d 76 d0 39 3d a3 23 c6 3d 36 1c ac bd
       0.063448764 0.04536482 0.09674766 -0.08403818
000110 e9 75 9b 3d a5 ab 03 3d 87 af b2 bd e4 04 a7 bd
       0.07590849 0.032146115 -0.087248854 -0.0815523
000120 be f8 ca 3d ef ad e7 bd 6c 00 98 bd 36 09 ac bd
       0.09910725 -0.11312472 -0.074219555 -0.08400194
000130 b2 88 81 bd a6 93 47 3c a3 7a 04 be a1 72 43 3d
       -0.06324901 0.012181198 -0.12937407 0.04771674
000140 96 0f a2 3d 3a fc fa bd 0b 4f bc 3d ac 1c af bd
       0.07913129 -0.1225514 0.09194764 -0.085503906
000150 d8 3c 9e 3d 99 2f 70 3d 30 6f e4 bb a4 cd 98 bd
       0.07726449 0.058639143 -0.0069712624 -0.07461098
000160 e0 66 86 bd bd 1a 48 3d c8 75 c9 bd f2 06 e8 3c
       -0.065625906 0.048853625 -0.09836918 0.028323624
000170 c3 45 d5 3d 33 51 07 3d dc 6f 22 3d 7a ed cd 3d
       0.104136966 0.033036422 0.03965746 0.10055061
000180 31 3d 36 3c d9 c6 42 bb c1 e2 bf 3d 7b 3e 58 3d
       0.011122988 -0.0029720573 0.09369422 0.05279396
000190 45 69 a8 3d 33 fd e5 bc 5e d1 02 bc a9 45 01 3d
       0.082232036 -0.028074836 -0.007984487 0.031560574
0001a0 f4 5e d3 bc a0 04 2d bd 15 69 2f bd ed 05 cb bc
       -0.025802113 -0.04224074 -0.042824823 -0.0247831
0001b0 b3 52 a6 bd da 3c ae bd 41 d1 db bd a8 99 ab 3c
       -0.081212424 -0.085077 -0.107332714 0.020947292
0001c0 5b 97 ca 3c fb 5a a6 3c 07 73 f2 bd f6 fe 58 bd
       0.024730375 0.020307055 -0.11838346 -0.052977525
0001d0 01 66 41 3d 8c b4 cc 3d e6 49 c3 bc c5 a4 99 3d
       0.04721642 0.09995374 -0.023838948 0.075021304
0001e0 87 d7 a1 bd 8f 5f cc bd 86 98 bf bd 0d 0c c2 ba
       -0.07902437 -0.09979164 -0.093552634 -0.0014804617
0001f0 ea 76 8d bc 52 82 ce 3d 4d 5b e5 bc ff 4b 75 bc
       -0.017268617 0.100834504 -0.027997637 -0.014971732
000200 df ee e3 3d dd 13 8b bd 86 a8 c0 bd 75 56 e7 3d
       0.111295454 -0.06790898 -0.09407143 0.11295787
000210 54 48 8d bc 43 d7 50 bd e2 d0 b8 bd ee 2d 83 bd
       -0.017246403 -0.05098654 -0.09024216 -0.06405245
000220 cb 91 07 bd 1d bc 4e bd e7 5b 0f 3c 28 0a dd bd
       -0.033098023 -0.050472368 0.008749939 -0.10792953
000230 aa c2 0d 38 37 66 e8 3d e4 7a 2e bd 2f 30 10 bd
       3.3798315e-05 0.11347621 -0.042597666 -0.0352022
000240 66 33 84 3d 5d 58 a9 3d 34 e5 1a bc 0e 80 92 3d
       0.06455116 0.08268807 -0.00945406 0.07153331
000250 00 36 2d 3c df 86 83 bd 73 01 d1 bd 93 42 75 3d
       0.010571957 -0.06422209 -0.102053545 0.059877943
000260 b7 dc c9 bd 86 fd 34 3d ec af 16 bd 4f b6 da bd
       -0.09856551 0.04418709 -0.036788866 -0.10679304
000270 73 81 c7 3d 84 84 8f 3c 5a 5f 04 bd f9 a4 21 3d
       0.09741487 0.017519243 -0.032317497 0.03946397
000280 0f 55 3a 3d 83 51 c8 3c 5a bc ca 3d 25 ae b9 bd
       0.045491274 0.02445293 0.098992065 -0.090664186
000290 6a 16 d3 3c 15 a2 99 bc f3 f8 e2 bd 7c 28 87 3c
       0.025767524 -0.018754045 -0.110826395 0.016498797
0002a0 42 fb c9 3d 55 79 82 3d d3 0c 80 3b a2 be 92 bc
       0.09862377 0.063707985 0.0039077788 -0.017913166
0002b0 f4 1a b0 3d fb ea de 3d b1 53 34 3d 50 8c 7d bd
       0.08598891 0.10884663 0.044025127 -0.06190139
0002c0 5d 3a 86 3c bb a8 a7 bd d8 2f e0 3d 79 12 12 bd
       0.016385252 -0.0818648 0.109466255 -0.03566215
0002d0 31 a9 bd bd 0d 22 f2 3d d4 46 17 bd ab 00 93 bd
       -0.09260786 0.11822901 -0.03693278 -0.07177862
0002e0 67 59 68 3d 08 23 41 3d 08 9c 49 bc 47 66 91 bc
       0.056725886 0.04715255 -0.012305267 -0.017748965
0002f0 74 48 fa bb 9d a5 05 ba 94 03 da 3d 22 ff dd bd
       -0.0076380316 -0.00050982257 0.10645214 -0.10839678
000300 da a1 d1 bd a2 1f cc 3d e2 da 1c bc bb ea 17 3d
       -0.10235949 0.09966971 -0.00957367 0.03708909
000310 b4 e3 b9 3d 35 fe d4 3c 43 a9 8e bd 7c 1c 57 bd
       0.09076634 0.026000122 -0.06965878 -0.0525174
000320 23 55 5c bd c2 fd 05 be d7 c4 a5 bc a7 61 db 3b
       -0.05379213 -0.13085082 -0.020235462 0.0066949907
000330 97 2f a4 3b 6e 8f 86 3a 4b e8 80 3d 41 03 00 be
       0.005010556 0.0010266134 0.06294306 -0.12501241
000340 d5 77 88 ba d6 b6 cb bc ca 89 92 bd a4 29 a1 3d
       -0.0010411689 -0.024867456 -0.071551874 0.078692704
000350 21 cc 83 3d 0a 3b 8e bd 4d 92 0e bd 99 24 8f bd
       0.06435419 -0.069448546 -0.034807492 -0.06989402
000360 69 7f 79 3d 60 3b 3c 3d 81 53 69 3d 8d 15 d9 bd
       0.060912523 0.045955062 0.0569644 -0.105998136
000370 e5 5e 7f bc bf e1 0a bd f7 c2 b7 3d f6 a0 e4 bb
       -0.015586589 -0.033906695 0.089727335 -0.006977196
000380 c3 11 da 3d 0f 51 ce bd d5 90 f6 bd b7 e5 62 3b
       0.10647919 -0.100740544 -0.12039343 0.0034621784
000390 54 96 e3 3d ed 58 43 3c 25 e6 bd 3d 75 5b be bb
       0.11112657 0.011923057 0.09272412 -0.0058092424
0003a0 1c 11 b0 bd c9 55 55 3c b5 2d 9a 3d 5e 4e 02 3d
       -0.08597013 0.013020941 0.07528249 0.031813018
0003b0 09 08 ba 3b ad 51 fc 3c f1 74 d3 3d 00 86 30 3c
       0.0056772274 0.030800665 0.10325039 0.010774136
0003c0 4c 5c b4 bd 7f 01 e5 3d 31 8d ca bd a2 fa 91 bd
       -0.08806667 0.11181926 -0.098902114 -0.071278825
0003d0 a0 6b 35 3d ba 01 48 3d 76 a0 a1 bd 1a 2b 05 be
       0.044292092 0.04882977 -0.078919336 -0.13004723
0003e0 cf 52 89 bc 36 c6 d2 bc 9e 45 81 3d e5 c7 d6 3c
       -0.016763119 -0.02572928 0.063121065 0.026218364
0003f0 c1 81 d0 3d 4c df 84 3d 2e ae 88 bc aa c7 7d 3a
       0.101809986 0.06487903 -0.016684618 0.00096809363

conv1.nn.3.bias f4 [64]
000000 d6 87 3b 3d 08 d1 b2 bd e7 59 c1 bd 0d 20 a9 3d
       0.04578384 -0.08731276 -0.09440976 0.08258066
000010 99 31 a5 bd d7 fa e3 3d bb c9 05 3e 98 a0 d5 3d
       -0.080661006 0.11131828 0.13065235 0.104310215
000020 da 7b 18 bd 83 08 b8 bc 8b 51 0a 3d ff 67 82 bd
       -0.03722749 -0.022464996 0.03376917 -0.06367492
000030 52 ee 91 3b 03 40 f8 3d 34 8c 97 bc 48 21 4e bb
       0.004453459 0.12121584 -0.018499471 -0.0031452943
000040 c7 8c b6 3d d4 b7 0e 3d cf fa e7 bd 20 3f f1 3d
       0.0891357 0.03484328 -0.11327135 0.11779618
000050 0f 91 d9 bc 96 eb d9 3d ee 1e f5 3d 21 14 f1 bc
       -0.026558427 0.106406376 0.1196879 -0.029428544
000060 83 be cb bc a6 69 10 3d 98 7d 62 3d 6e eb 8a bd
       -0.024871117 0.035257004 0.055295557 -0.06783186
000070 58 f4 9e 3d 8a 6c 39 3d b3 8d 97 bd 26 b6 da bd
       0.077614486 0.045269527 -0.07400074 -0.10679273
000080 2e 49 a9 bd 52 b2 04 3d 99 47 21 bd 66 82 56 bd
       -0.08265911 0.032396622 -0.03937492 -0.05237045
000090 eb af 56 3c f2 55 c5 3d 92 a5 d1 bc d6 6d 09 3c
       0.013103466 0.096355334 -0.025591645 0.008388003
0000a0 89 0b 1a bc 5d 92 e3 bc 6c ca b9 3d 59 a5 6c bd
       -0.009402164 -0.027779752 0.09071812 -0.057774875
0000b0 68 7b cd 3d af 8d 4d 3d 1f 04 97 bc 8e d4 b0 3d
       0.100333035 0.050183948 -0.018434582 0.086342916
0000c0 9a d6 0d bd 83 92 62 3d 7c 66 78 bd 10 8c ce bd
       -0.034628488 0.055315506 -0.06064461 -0.100853086
0000d0 5c bf b7 bc 3b 7b 90 3d 47 41 63 3d 18 e9 b5 3c
       -0.022430114 0.07054754 0.055482175 0.022205874
0000e0 33 7d ec bd 72 d4 62 3d 76 41 59 3b d8 99 b3 bc
       -0.11547317 0.055378385 0.003315059 -0.021923944
0000f0 7d 8b ae 3b b1 a3 08 3d 30 c8 84 3d 20 e7 2b 3d
       0.005326687 0.033359233 0.06483495 0.041968465

conv2.nn.0.weight f4 [64, 64]
000000 b3 23 14 bd bb d0 e8 bd 22 18 86 3d 53 b5 62 3d
       -0.036166858 -0.11367937 0.06547572 0.055348706
000010 2a aa 79 3d 0e 52 d6 bd 00 74 e8 3d 16 eb ab 3d
       0.060953297 -0.104648694 0.1135025 0.083944485
000020 f8 71 f8 3c 28 56 c6 3d 75 8b b9 bd 26 35 d8 3d
       0.030327782 0.09684402 -0.090598024 0.10557012
000030 4b e2 dd bd de dc f4 3d 83 5d 26 bd c7 11 87 bd
       -0.108341776 0.119561896 -0.040616523 -0.06595188
000040 8d 0c a3 3d 88 fc c7 3d 61 de ec 3c 03 33 e3 3c
       0.07961378 0.097649634 0.028914632 0.027734285
000050 62 70 a1 3d 46 97 d3 3d 07 f2 63 3d 45 00 40 bd
       0.078827634 0.103315875 0.055650737 -0.046875257
000060 fd 00 d2 bc 23 4e b8 3d e2 30 27 3c 23 6f 96 3d
       -0.025635237 0.089992784 0.010204526 0.073454164
000070 6f f2 6c bd 9b e3 35 bd 7c 2b 1c 3d 36 cc f6 3d
       -0.05784839 -0.044406515 0.038127407 0.12050669
000080 2a 01 e2 3b e2 19 ce 3d 7e 1d 6e bc 3f a2 bd bd
       0.0068971114 0.100635305 -0.014533399 -0.092594616
000090 a2 ee a2 bd 07 71 f0 bd e6 a5 38 bd e3 42 15 bd
       -0.07955672 -0.11740308 -0.045080088 -0.03644074
0000a0 e0 33 dc 3c f4 eb 5f 3d 53 01 aa bd 0b c3 8a 3d
       0.026880205 0.05466838 -0.08301034 0.06775483
0000b0 c5 bf b5 3d cd 50 14 bd f1 fe 36 bd 5b b4 86 bb
       0.08874468 -0.03620987 -0.044676725 -0.0041108555
0000c0 50 2f f3 bd 36 2d c5 3d 8a a1 30 3c 37 fd 9d bd
       -0.118742585 0.09627764 0.010780701 -0.077143125
0000d0 6e c4 24 bd 0e 3e e0 3c 03 e5 95 bd 02 fb a3 b6
       -0.040226392 0.02737334 -0.07319071 -4.8869997e-06
0000e0 88 64 5d bd b8 34 e2 bd 23 c3 b7 bd b8 bd e4 3d
       -0.054050952 -0.110452116 -0.08972766 0.111689985
0000f0 22 ee a5 3b 2d f0 ac bc 65 d8 89 ba 02 bd 3b 3c
       0.005063788 -0.021110618 -0.0010516761 0.011458637
000100 c2 c7 e9 3d 8a b6 b8 bc 16 e8 8d 3d dd 30 d2 bd
       0.11415054 -0.022547979 0.069290325 -0.10263226
000110 62 cf c0 3d ac d1 f7 3c 97 17 48 bd cf 0c 0d bd
       0.09414555 0.030251347 -0.048850622 -0.034436043
000120 af c3 9b bb 47 7b 5d bd e2 f9 8f 3d 8f 6e 90 3d
       -0.004753552 -0.054072645 0.07030083 0.070523374
000130 2f aa f1 bd 08 e8 18 bd 80 67 b0 3d f3 b5 32 bd
       -0.11800038 -0.037330657 0.08613491 -0.04363055
000140 5a fc 3f bc 6a a7 9c bd 5f 95 b7 3d ea c7 ce 3d
       -0.01171788 -0.07649119 0.08964037 0.10096724
000150 9f 84 df bd 69 59 fb bd 44 39 8f bd 6f 6e 95 3d
       -0.10913967 -0.12272913 -0.069933444 0.07296454
000160 9e 9e b9 3d b1 a8 a6 bd c3 5d 12 bd a2 56 9c bc
       0.09063457 -0.08137644 -0.03573395 -0.019084278
000170 0a 4b 86 3c 79 c6 25 3d 5b ee 2e bd c8 5c d1 bd
       0.016393203 0.04047248 -0.042707782 -0.10222775
000180 86 25 7c 3d 9c af eb 3d 36 a6 b2 bc 82 c0 12 bd
       0.061559223 0.11508104 -0.021807771 -0.03582812
000190 d9 e7 92 bd c3 72 2b bd 98 2d e2 3d 18 ac 9f 3d
       -0.07173128 -0.041857492 0.110438526 0.07796496
0001a0 a3 f3 c6 3d 0e 5a da 3c 5a 0d de bd f4 c1 fb bd
       0.09714439 0.02665427 -0.1084239 -0.12292853
0001b0 51 85 e2 3d 9a ad e9 bb 2f d9 35 bc 44 93 02 be
       0.11060584 -0.0071312906 -0.011099144 -0.1275149
0001c0 42 bd 07 3d 57 2a 36 3d 5c 24 d5 3d 85 c4 d5 bd
       0.033139475 0.044473972 0.104073256 -0.10437874
0001d0 1b 95 c8 bc 89 a1 02 bc 70 48 ca 3c c5 1c 0b bd
       -0.024485162 -0.007973083 0.024692744 -0.033962984
0001e0 20 8a 63 bd 0a a7 07 3c 1d 17 e3 3c be dd 92 3c
       -0.05555165 0.008279571 0.027720982 0.017928
0001f0 cc d2 13 bd 70 8f d8 bd e3 ce eb 3d 35 f2 c7 bd
       -0.036089703 -0.105742335 0.1151407 -0.09762994
000200 06 1c d8 3d 7b 0f 8f bd ec e7 09 3c 2d 86 21 bd
       0.1055222 -0.069853745 0.008417111 -0.0394346
000210 48 67 d8 bd 9a ee af bd a3 bb df bb 23 ed bf 3b
       -0.10566574 -0.085904315 -0.006827788 0.0058571263
000220 45 b1 96 3d a5 a0 48 3d 6b f1 0a bd 1c 0e d0 bd
       0.0735803 0.048981328 -0.03392164 -0.10158941
000230 07 d3 4c 3d 43 87 cb 3d b8 fe a0 3d 72 fe bc 3d
       0.05000594 0.099379085 0.07861084 0.09228219
000240 67 58 99 3c 29 74 ac 3d 16 01 c9 3d d4 de d9 3d
       0.018718911 0.08420593 0.0981466 0.10638204
000250 d8 54 ee 3d 15 21 9b bc dd e7 20 bd 7c 7a 5e 3d
       0.116372764 -0.018936673 -0.039283622 0.05431603
000260 a2 ce dd bd 78 3b a0 3d 9f 14 06 3e 50 50 f4 bd
       -0.10830428 0.07823843 0.13093804 -0.11929381
000270 2c 30 e6 3d ee b8 19 3d 34 0a 37 3d 7c e7 ca 3d
       0.11239657 0.03752988 0.044687465 0.099074334
000280 b9 9b d0 3d cb bb e4 3d 52 43 77 bd 04 42 d1 bd
       0.10185952 0.11168631 -0.060366936 -0.102176696
000290 39 0b 4e 3d 1f 54 80 3d 77 a3 93 3d d4 a0 8c bd
       0.05030367 0.06266045 0.07208913 -0.06866613
0002a0 2e 5c 23 3d 82 1d 90 3d 5d bb d2 3c 7c 93 69 bd
       0.03988283 0.07036878 0.025724107 -0.057025418
0002b0 7f d9 11 bd 27 6d dc 3c 42 7e f3 bd 68 67 e6 bd
       -0.03560781 0.026907517 -0.11889316 -0.11250192
0002c0 69 09 cb bd 5b 1d f2 3d 75 f3 7d 3d ab 0b 5e bc
       -0.09913904 0.11822005 0.061999757 -0.013552587
0002d0 a6 79 5a 3d 9b 5a 55 3d a3 f6 8c bd 7e c8 d4 3c
       0.05333867 0.05208836 -0.0688298 0.025974508
0002e0 f7 f7 f7 bc 07 ac 89 bd bd 17 3d 3d 98 b2 cf 3d
       -0.030269606 -0.06722265 0.046165217 0.10141486
0002f0 d8 0a fd bc e6 ba be 3c 37 8f 50 bd 10 b8 a8 bc
       -0.03088896 0.02328248 -0.05091783 -0.02059558
000300 db 89 f9 bd 87 9f ee bb e6 5f 04 3d af 8e 54 bd
       -0.12184497 -0.0072822007 0.03231802 -0.051893886
000310 23 64 e2 bc c6 c6 cb 3c 31 d4 8e bd db fb 59 3c
       -0.02763564 0.024875056 -0.06974066 0.013304676
000320 1f 45 81 3d a9 28 aa bd 95 d5 9a 3d a4 a7 78 3d
       0.06312012 -0.083085366 0.07560269 0.06070675
000330 9a 5e a7 bb 12 45 56 bd 29 1f e3 3b c6 42 72 3d
       -0.005107713 -0.052311964 0.006931205 0.05914571
000340 49 04 89 3d 4e 07 2d bd 71 03 b3 3d 82 9e 3b bd
       0.066902705 -0.042243294 0.08740891 -0.04580546
000350 91 ff de 3a 65 f3 2c bd 1f 83 e8 3d 78 91 ec 3d
       0.0017013421 -0.042224307 0.11353134 0.115511835
000360 71 0a d5 bd 8a cb 9e 3d c4 65 d8 3d 0f 33 42 3c
       -0.10402382 0.07753666 0.10566285 0.011852994
000370 61 2c 8d 3d d3 6b f1 bc a1 e1 c3 bc e4 63 07 3d
       0.0689323 -0.02947036 -0.0239113 0.033054247
000380 c1 50 95 3d f2 2b 68 bd 86 8a 8c 3d b1 7d 79 bd
       0.07290793 -0.056682535 0.06862359 -0.060910884
000390 f4 75 fd 3c b4 72 38 bd 33 6f a3 3c ce fa be bd
       0.030940033 -0.045031264 0.019950485 -0.09325181
0003a0 2d 41 56 bd ba fd 3b 3d b8 f0 10 bd 8d bd bc 3d
       -0.05230825 0.04589627 -0.035385817 0.092158414
0003b0 39 83 c5 3d 79 50 a7 3d de 51 a7 bd ab 52 2e 3c
       0.09644169 0.08169646 -0.08169912 0.010639827
0003c0 5f 91 f9 3d c7 63 9a bd 6c 92 bf 3d f1 c3 af 3d
       0.121859305 -0.07538562 0.093541 0.08582295
0003d0 53 25 d4 bd 2f 07 50 bd 17 a9 d1 bd 1e fd 28 bd
       -0.103586815 -0.0507881 -0.102373295 -0.041257016
0003e0 a0 b9 9d 3c 27 70 90 bc 8f 03 9a bc 31 ac 94 3d
       0.019253552 -0.017631603 -0.018800525 0.072594054
0003f0 12 40 01 be 20 ae 99 bd 0a f4 75 3d 24 a3 a5 3d
       -0.12622097 -0.07503915 0.060047187 0.08087757

conv2.nn.0.bias f4 [64]
000000 57 54 b3 bc 98 1e 7a bd 74 41 ef bd d3 db 43 bd
       -0.021890802 -0.061064333 -0.11682406 -0.047817063
000010 9c 56 53 3d b7 65 8d 3d a3 c6 a7 bc 93 4e f5 bd
       0.05159627 0.06904166 -0.02048046 -0.119778775
000020 79 5b c4 3d 47 d1 00 3e ce b0 b2 bd 92 90 3a bd
       0.095877595 0.12579833 -0.08725129 -0.04554803
000030 28 70 c5 3c b3 f8 af bc e1 55 64 bc c8 52 a7 3d
       0.024101332 -0.021480894 -0.013936491 0.08170086
000040 d5 69 b7 bd e9 1c b1 3d 3a 23 95 bc 2a e9 e1 3d
       -0.08955733 0.08648092 -0.018205274 0.11030801
000050 71 96 e5 bd 97 41 85 3d b8 d7 db bd 41 6f 22 3d
       -0.11210335 0.06506651 -0.107345045 0.03965688
000060 ad c5 e6 b9 15 eb 5b 3d f0 41 91 3d 9b 65 cb 3d
       -0.00044016298 0.05369099 0.07092655 0.09931489
000070 3b ca 1f bd 19 67 4a 3c c7 e9 f1 3d 09 f1 89 bd
       -0.03901122 0.012353682 0.118121676 -0.06735427
000080 d3 37 ff bc 60 35 8a bc 2a c4 cd 3d e1 fd d4 3b
       -0.031154549 -0.016871154 0.10047181 0.0064999913
000090 7c f6 83 3d fb c0 c3 bd da a5 1e 3d 22 c5 e4 3d
       0.064434975 -0.095582925 0.038732387 0.111704126
0000a0 cd eb 9b bd d0 f3 66 bd 30 fd a5 bc 68 e0 d8 bc
       -0.07613335 -0.05638486 -0.02026233 -0.026474193
0000b0 7b 41 98 bd 52 0c b1 3c e4 69 dc 3d 6a 5e 08 be
       -0.074343644 0.02161232 0.107623845 -0.13317266
0000c0 1f 6f 72 bd 83 52 07 bd 28 f1 bb 3d cb 42 47 bd
       -0.059188005 -0.033037674 0.09176856 -0.048647683
0000d0 b4 8f d7 bd 5c 7f ae 3d 7b c5 cf bd 29 b2 b4 bc
       -0.10525456 0.085203856 -0.10145088 -0.02205761
0000e0 28 4e d9 3b 92 33 ce bd 9e b0 a4 bd 2a 75 e5 3d
       0.0066316314 -0.1006843 -0.080414996 0.11203988
0000f0 ff 2c d3 bd 8e 31 6c bd da 42 1c 3d db 7b 1e bd
       -0.10311317 -0.057664447 0.038149692 -0.038692337

conv2.nn.1.weight f4 [64]
000000 58 59 80 3f c2 63 7e 3f a8 e3 80 3f cc 23 7f 3f
       1.0027266 0.9937097 1.0069475 0.99663997
000010 af 1e 7e 3f 38 5f 7e 3f 42 99 80 3f bf 1b 7f 3f
       0.9926557 0.9936404 1.004677 0.9965171
000020 98 3c 7f 3f 4e 8c 7f 3f 06 fe 80 3f 47 d6 80 3f
       0.99701834 0.9982346 1.0077522 1.0065392
000030 7e 60 80 3f 63 fd 80 3f ff 7d 7f 3f f9 1b 81 3f
       1.0029447 1.0077327 0.9980163 1.0086662
000040 3b 05 7e 3f 08 b7 80 3f b5 98 80 3f 86 d2 7e 3f
       0.9922673 1.0055857 1.0046602 0.99539983
000050 53 50 7f 3f 33 03 81 3f 98 fc 7e 3f 86 b8 7d 3f
       0.9973194 1.0079101 0.9960418 0.99109685
000060 e6 b8 80 3f e5 96 7d 3f 62 00 81 3f 06 26 7e 3f
       1.0056427 0.9905837 1.0078242 0.9927677
000070 54 39 7e 3f ce 1e 82 3f 12 ea 80 3f 9f e1 7c 3f
       0.99306226 1.0165651 1.0071433 0.9878177
000080 0c 44 80 3f c9 6c 80 3f 60 b1 7e 3f 2c c3 7d 3f
       1.0020766 1.0033199 0.994894 0.99125934
000090 be 8a 80 3f 16 f2 7e 3f e6 0d 81 3f 83 b1 7f 3f
       1.0042341 0.99588144 1.0082366 0.99880236
0000a0 28 4d 82 3f 21 b5 80 3f d0 a8 80 3f 5c b8 7e 3f
       1.0179796 1.0055276 1.0051517 0.9950006
0000b0 f6 72 80 3f 3e 3e 80 3f 75 2d 81 3f 60 8f 7d 3f
       1.0035083 1.0018995 1.0091997 0.990469
0000c0 69 20 80 3f 29 83 80 3f 96 66 80 3f 92 8a 80 3f
       1.0009891 1.0040027 1.0031307 1.0042288
0000d0 88 63 7f 3f 70 08 80 3f af b3 7e 3f 48 89 80 3f
       0.9976125 1.0002575 0.99492925 1.0041895
0000e0 fb a8 7f 3f 41 7f 7d 3f bc fc 7f 3f 0b ee 7d 3f
       0.9986722 0.990223 0.9999502 0.9919135
0000f0 65 98 7d 3f b6 7e 7e 3f bf ca 7e 3f 56 a9 7e 3f
       0.9906066 0.99412096 0.99528116 0.99477136

conv2.nn.1.bias f4 [64]
000000 f8 d8 a3 ba 95 f2 19 bc b1 da 03 3c 5d 86 46 ba
       -0.0012500575 -0.009396215 0.008047746 -0.0007573122
000010 b2 99 16 bc 7d e7 a4 bb f8 47 59 3b 1f 98 d9 ba
       -0.009191917 -0.0050324784 0.003315447 -0.0016601122
000020 fc 68 7c bb 34 b9 2e 3b fc 45 1a 3c 5c e0 d1 3b
       -0.0038514724 0.0026660683 0.0094161 0.0064049195
000030 b5 6b f0 bb c3 79 fd 3b 65 f2 3c bb 7a 66 23 3c
       -0.0073370584 0.0077354624 -0.0028831002 0.009973163
000040 06 65 f5 bb 7f fb ba bb 48 ef cc 3b d8 a0 c0 bb
       -0.0074888496 -0.00570625 0.0062541105 -0.005878549
000050 a0 b3 68 3c 7f af 19 3c 5a e4 5f bb ba 02 75 bc
       0.014202982 0.00938022 -0.0034163208 -0.014954263
000060 12 48 45 3b 60 4e 8e bb 5e c3 ce b6 71 c3 dd bb
       0.0030102772 -0.004342839 -6.162022e-06 -0.006767683
000070 18 b2 02 bc e9 98 35 3c be 12 c7 3b 35 60 23 bc
       -0.007977031 0.01108382 0.0060752323 -0.009971668
000080 dc 8c 44 ba b9 ab ee 3a 4c 37 97 bb 6b 8c 93 3a
       -0.00074977963 0.0018209136 -0.004614746 0.0011257058
000090 1e fc 76 3c 09 49 25 3b 26 e0 08 3c b4 0b 0c ba
       0.015074758 0.0025220534 0.008354222 -0.000534232
0000a0 60 a0 77 3c 04 de b3 3b b7 d4 d0 3b bb 3d e1 3b
       0.01511392 0.005489113 0.006373014 0.006873814
0000b0 5d ae b2 3b 58 45 5b b9 71 cc 1c 3c b1 25 f4 bb
       0.0054529146 -0.000209113 0.009570227 -0.007450782
0000c0 c1 a4 b9 3a ac b5 88 3b 1c 6e 5a b9 5f d4 85 bb
       0.001416348 0.0041720476 -0.00020831119 -0.0040841545
0000d0 52 7d 51 bb 36 7a 01 3b d2 49 a3 bb 5e f6 93 3b
       -0.0031965566 0.0019756681 -0.0049831653 0.0045154532
0000e0 c9 96 9c 3a 3f ed ee bb 52 b7 40 3c 4f ae 20 bc
       0.0011946793 -0.0072914655 0.011762457 -0.009807183
0000f0 17 1c 15 bc 01 70 b8 bb 39 ee 94 bb 7c 81 1c 3c
       -0.009100935 -0.0056285863 -0.004545 0.009552356

conv2.nn.1.running_mean f4 [64]
000000 10 02 3f c0 b7 53 27 bf ef 5a 8e 3f f8 dd 99 40
       -2.984501 -0.65362114 1.1121501 4.808346
000010 81 e2 35 40 c5 74 ff 3f ac 64 73 be 94 14 81 3e
       2.8419497 1.995751 -0.23768872 0.25211012
000020 4a 57 e7 c0 f6 9b 63 40 c1 dd 37 40 bf ad a5 c0
       -7.2294054 3.556394 2.8729098 -5.1774592
000030 18 2a 39 c0 c4 bc 0d 40 1d b3 bb c0 b3 87 28 40
       -2.8931942 2.2146463 -5.8656144 2.6332824
000040 d8 57 c6 c0 6d df 56 40 d0 62 d2 3f cd 67 59 40
       -6.198223 3.3573868 1.6436405 3.3969605
000050 3d e1 53 40 31 8b 88 40 2d d1 69 40 cb c8 7d 40
       3.3106225 4.266991 3.653392 3.9653804
000060 e5 20 81 40 53 be 9e 40 bf a8 c9 b8 51 f6 4c c0
       4.0352654 4.960733 -9.615858e-05 -3.202534
000070 a9 4f a9 c0 74 81 0b 40 f0 7b 80 c0 3f 63 10 c0
       -5.290974 2.1797762 -4.015129 -2.2560575
000080 7b 62 cd bf 63 04 07 c0 72 42 26 40 c4 ee 57 40
       -1.6045679 -2.1096427 2.5978055 3.373948
000090 5b 13 ba 40 67 c9 17 40 ed 9e 7f 40 da 20 49 bd
       5.8148627 2.3716676 3.994075 -0.049103595
0000a0 de 84 06 c0 94 88 4b c0 55 b3 11 c0 c1 ca 6a 40
       -2.1018596 -3.180211 -2.2765706 3.668625
0000b0 5c f5 b3 c0 43 de 71 3f df 89 53 c0 f9 19 b0 40
       -5.623701 0.9447977 -3.30529 5.5031705
0000c0 e3 b6 9a c0 37 da 46 c0 ea 00 90 3e 4d 20 5c 40
       -4.834825 -3.1070688 0.28125697 3.4394715
0000d0 5e e7 be 3f ec 67 0b c1 2a 65 a9 c0 0a 64 b7 3f
       1.4914358 -8.712872 -5.293599 1.4327404
0000e0 b1 0e 87 40 cc c8 a4 c0 c5 df 2d c0 bb 4a 7f 40
       4.2205434 -5.1495113 -2.7167828 3.9889362
0000f0 cf 3b 71 c0 4d 94 98 c0 5c 86 8a c0 95 ac 75 40
       -3.7692754 -4.768103 -4.3289013 3.8386586

conv2.nn.1.running_var f4 [64]
000000 2f 02 06 41 e2 39 fb 3f 9f aa d1 3f 34 c3 b6 41
       8.375533 1.962704 1.6380194 22.845314
000010 7c 81 dd 40 ec 02 92 40 9c 81 9c 3f 5e f7 09 3f
       6.922056 4.5628567 1.2227054 0.5389308
000020 67 cb 46 42 f9 9a 58 41 a5 0d 07 41 6c 84 bf 41
       49.698635 13.537835 8.440831 23.93966
000030 8c 61 03 41 c4 f6 0a 41 8d 80 09 42 37 4b da 40
       8.211315 8.6852455 34.375538 6.8216815
000040 dc 1c fe 41 59 66 38 41 51 18 d7 40 a5 a0 19 41
       31.764091 11.524987 6.7217183 9.60172
000050 65 ca 57 41 bd d0 81 41 5e fd 50 41 4a 6e 60 41
       13.486913 16.226923 13.061857 14.026926
000060 b7 64 4c 41 7c aa db 41 00 91 73 3f e7 0d 3a 41
       12.774589 27.458244 0.9514313 11.628394
000070 16 50 09 42 40 83 04 41 e4 6a 95 41 20 29 a4 40
       34.32821 8.282043 18.677193 5.13002
000080 93 18 5a 40 77 36 e2 40 fc fa f5 40 d1 15 3a 41
       3.40775 7.0691485 7.6868877 11.630326
000090 62 b1 ef 41 26 b0 be 40 62 60 90 41 85 e9 b9 3f
       29.961613 5.9590025 18.047062 1.452439
0000a0 cb 6f 77 40 bc 84 0f 41 20 43 c1 40 d6 25 4b 41
       3.8661983 8.969906 6.039444 12.696737
0000b0 b3 cb 08 42 bc 40 ef 3f 60 f9 3e 41 eb cb 05 42
       34.198925 1.869163 11.935883 33.44914
0000c0 b4 e8 bb 41 d2 4d 1d 41 69 26 8d 40 27 fc 71 41
       23.488625 9.831499 4.4109387 15.124061
0000d0 98 67 62 40 72 74 8f 42 8b f8 b0 41 19 42 6f 40
       3.5375729 71.72743 22.121359 3.7384093
0000e0 c9 4f b1 41 d5 3b ae 41 7b 28 ce 40 24 f6 7a 41
       22.163958 21.779215 6.4424415 15.685093
0000f0 53 63 4d 41 6e 59 a9 41 e3 84 81 41 95 5c 60 41
       12.836749 21.168667 16.189886 14.022603

conv2.nn.3.weight f4 [64, 64]
000000 7b ef ff 3c 1b 0e 26 3d f1 db 01 be 4f d6 0a bd
       0.031242123 0.040540796 -0.12681557 -0.033895787
000010 3e c5 14 3d ea 11 dd 3d d3 99 cf 3d 9e 9f 6e bc
       0.036320917 0.107944325 0.101367615 -0.014564423
000020 ef 7f 9b bd b9 b2 98 3d a5 f6 52 bd df 19 ca 3d
       -0.07592761 0.07455964 -0.05150475 0.09868216
000030 a8 16 74 3d e5 94 11 3d 0a d0 c4 3d a5 56 01 3c
       0.05959192 0.035542388 0.09609993 0.007894193
000040 95 a0 66 bd 9e b2 2a 3d 8f 72 e4 bd 0b 38 d4 bc
       -0.056305487 0.04167425 -0.11154663 -0.02590563
000050 fd 22 8f 3d ff ee ba 3d d6 c2 16 3d e0 7c be 3d
       0.06989095 0.09127616 0.036806904 0.09301162
000060 d9 1b 3a 3d 99 a5 af 3c 0e 0e 16 3d 5d e0 b6 bd
       0.045436714 0.021441268 0.036634497 -0.08929513
000070 5c fe b9 bd 39 26 f6 bb b6 d4 85 bd 73 fe 90 bd
       -0.09081718 -0.0075118807 -0.06534712 -0.07079782
000080 3e 00 da bd 45 be ad 3d 76 ec d2 3d fa 1c 5d 3c
       -0.106445774 0.08483557 0.102990076 0.013495678
000090 b4 04 c1 bd a2 89 f4 bd b1 c2 90 3d 26 26 93 3d
       -0.09424725 -0.11940314 0.070683844 0.071850106
0000a0 40 a1 ff bd c7 ef 83 bd f9 fa a3 bd cf 08 3c bd
       -0.12481928 -0.06442218 -0.080068536 -0.045906838
0000b0 ec e3 86 bd 16 de f1 3d b4 b0 ae bd 9d 16 96 bd
       -0.065864414 0.11809938 -0.08529797 -0.07328532
0000c0 23 42 de bc 4c e3 e0 bd d2 f7 d6 bc 4d e0 da bc
       -0.027131146 -0.109808534 -0.026241217 -0.026718283
0000d0 75 a8 77 3d 58 4f ea bd c1 1d 67 bd 8d 65 d0 3d
       0.060463388 -0.11440915 -0.05642486 0.10175619
0000e0 71 c5 b6 3c d8 50 72 3d b2 8b 44 3d ed 04 2f bd
       0.022310944 0.05915913 0.047984786 -0.042729307
0000f0 6f 08 9d 3c 86 5c 24 bd 80 f6 ac bd 35 cf ae 3c
       0.01916906 -0.0401273 -0.08445454 0.021339038
000100 15 10 a1 bc 34 47 ff 3d b2 71 ba bd f8 06 ac bd
       -0.019660989 0.12464753 -0.09103717 -0.08399767
000110 82 65 df bc cb ad b6 3d 98 42 5e 3d c7 94 e0 bd
       -0.027270082 0.08919867 0.054262727 -0.10965877
000120 f8 7c a9 3d 65 53 76 bd 94 8d 37 3d e7 a2 e0 3d
       0.08275789 -0.060138125 0.044812754 0.10968571
000130 1d b2 0f bd c9 57 e5 bd 07 2c 8d bd 4e a6 04 3b
       -0.03508197 -0.11198384 -0.06893163 0.0020240727
000140 cf a0 7c bd d4 82 8d bd f2 b1 f4 ba 04 2f 9c 3d
       -0.061676797 -0.06909719 -0.0018668754 0.07626155
000150 8e a3 73 3d 57 a4 3e bd c4 49 42 3d 4f 91 ec 3d
       0.05948215 -0.046543445 0.04743363 0.11551153
000160 42 4f 42 3d 68 39 f7 3d 26 0a 85 bd 4a 13 74 3d
       0.047438867 0.12071496 -0.06496076 0.059588708
000170 88 c4 20 3a a5 98 c2 3d 22 00 5b bd 20 8b ed bc
       0.0006132801 0.09501771 -0.053466924 -0.028997004
000180 6b cd 58 3c 23 57 99 3d 02 55 d2 3d 96 4f 09 3d
       0.013232569 0.07487323 0.1027012 0.033523165
000190 ed ae e6 3b 78 fc 1c bd 8c 20 87 bd cd d0 8e bc
       0.0070398957 -0.03832671 -0.06598005 -0.017433548
0001a0 48 1d 1c 3d a0 4e ca bd 91 b3 f7 3d a8 7b 6d bd
       0.038113862 -0.09878278 0.120947964 -0.057979256
0001b0 0b 1f 0c bd 9b d6 bc 3d 2b 5f 83 bd d3 ab ec bd
       -0.034209292 0.0922062 -0.06414636 -0.1155621
0001c0 dd d5 c7 3b 57 8c cd bd 9d b0 70 bc 86 7e 07 bd
       0.0060984925 -0.10036533 -0.014690545 -0.033079647
0001d0 87 53 b6 bd 3e 08 e5 3d 77 09 67 bd c3 e4 e6 bd
       -0.0890265 0.11183213 -0.05640551 -0.112741016
0001e0 5e 88 e9 3c c8 c5 86 bd c2 49 75 3d cd 26 74 bc
       0.028507408 -0.065806925 0.059884794 -0.014901829
0001f0 5a 22 c6 bd d1 f4 e6 bd eb cd 62 3d b6 c9 8f 3d
       -0.09674521 -0.11277164 0.05537216 0.07020895
000200 9c 43 3b 3d 3b 22 b2 bd b2 50 72 3b dc 56 31 bd
       0.045718774 -0.08697935 0.0036974368 -0.043295726
000210 26 7a a3 3a a5 bf 18 3d 67 22 d4 3c a3 f1 5a 3d
       0.0012472316 0.03729214 0.02589531 0.0534531
000220 55 5f 99 bd 11 df 03 3e 0c f8 a8 3d b1 54 c4 3b
       -0.07488886 0.12878062 0.08250436 0.0059915413
000230 44 f9 cc 3d be 2d 02 3e 16 fa ed bd f8 59 c6 3d
       0.10008481 0.12712762 -0.11619966 0.09685129
000240 8b b0 cb 3c cd 51 bc 3d e7 17 fc bc 52 2a 81 bd
       0.024864456 0.0919529 -0.030773116 -0.063069
000250 0e c4 7a bb a6 11 fc 3d 8a 73 30 bd ec d6 84 3c
       -0.003826383 0.12308054 -0.043078937 0.016215764
000260 de da d0 3d ea 4d 3b bd fb a6 fb 3d b8 41 9d bd
       0.101979956 -0.0457286 0.12287708 -0.076785505
000270 b0 1f 73 bd 83 bf c0 bd 53 40 09 3d f2 57 e1 3c
       -0.05935639 -0.09411528 0.03350861 0.027507756
000280 fa 06 27 bc c3 c2 53 3d 6e 15 c2 bd 12 ec 8f 3d
       -0.010194534 0.05169941 -0.09476744 0.07027449
000290 16 1b ec 3d a2 df 98 3d b2 7e a0 3c 3d 42 59 3d
       0.11528604 0.074645296 0.019591663 0.053041685
0002a0 82 eb 0f bc 1b 09 a2 3d 3f 44 d1 3c 7b bc 21 bc
       -0.008784177 0.07911893 0.025545238 -0.009871597
0002b0 65 95 c1 bd 65 82 2b bd c3 2c e9 3d a1 72 a2 3c
       -0.09452323 -0.0418724 0.11385491 0.01983005
0002c0 73 31 8e 3d 0c 26 62 3b b2 43 c4 bd c7 6f f0 bd
       0.069430254 0.003450754 -0.09583224 -0.1174007
0002d0 7c 35 00 3d 6c fa e4 bd f2 a7 b6 bd 65 e3 b1 3d
       0.031301007 -0.11180577 -0.08918752 0.0868595
0002e0 70 30 9d bd 46 b2 f7 3b 48 43 5b 3d 4d 62 5b 3d
       -0.07675254 0.0075590936 0.05353096 0.053560544
0002f0 26 db 83 3d 32 42 28 bd 04 a6 a2 bd 96 b9 32 bd
       0.064382836 -0.041078754 -0.07941821 -0.04363402
000300 00 ef 51 3d 01 7d 42 3d c1 33 16 bc d1 50 e5 bd
       0.05125332 0.047482494 -0.0091676125 -0.11197055
000310 15 42 f3 bb da 71 d1 3d c2 ab 3b bc e2 bc ab 3d
       -0.007423649 0.102267936 -0.0114545245 0.08385636
000320 07 d6 db 3d 28 22 83 3d cf f7 bf 3d 77 97 a4 bd
       0.10734182 0.06402999 0.093734376 -0.08036702
000330 0e 1d 99 3d 16 4b 53 bd 32 95 e3 bd 60 8b 87 bd
       0.07476245 -0.05158528 -0.11112441 -0.066183805
000340 1d 00 83 3d 84 5a e5 3d f5 27 b8 3d b6 6f 4c 3d
       0.06396506 0.11198905 0.08991996 0.049911223
000350 3f f6 be bd 05 d4 84 bd 72 e4 59 bd e5 f9 6c 3d
       -0.093243115 -0.06485752 -0.053196378 0.057855505
000360 e5 16 43 bd c2 31 48 3d b2 3f a6 3d 36 91 dd 3d
       -0.047629256 0.048875578 0.08117618 0.108187124
000370 2c e2 d2 3d 26 3d c7 bd b3 5b 5f 3d e8 a7 e6 bd
       0.10297045 -0.0972846 0.05453081 -0.11262494
000380 cf b1 14 bd 60 2a 40 bd 78 94 ad bd ec 3d 5d 3d
       -0.036302384 -0.046915412 -0.08475584 0.05401413
000390 12 28 c0 3b 7c a1 5b bc 9a 8c 47 3d 6e 10 aa 3d
       0.0058641518 -0.0134052 0.048718072 0.08303915
0003a0 0d 4e fc bb db c9 10 bd 84 75 b4 bc 2c cf 8a bd
       -0.007699734 -0.035348754 -0.022028692 -0.06777796
0003b0 61 84 aa bd 01 cd d9 3c 9c 11 b6 3d c9 7b a4 3b
       -0.083260305 0.026587011 0.088900775 0.005019639
0003c0 e5 1c 16 3c cc 68 96 bd e1 2a bb 3d fa 4f ea 3c
       0.009162162 -0.07344207 0.09139038 0.028602589
0003d0 d8 f0 86 bc bb 07 a9 bd a7 e7 9e 3d 50 83 8e bc
       -0.016472265 -0.082534276 0.07759028 -0.017396599
0003e0 85 ea bc 3d ad 23 62 bb e8 ed f8 3d 26 35 4c bc
       0.092244186 -0.0034506128 0.12154752 -0.012463843
0003f0 e2 54 93 3c 0c 5d 77 3d 19 34 7e 3d 19 64 49 3c
       0.017984811 0.06039147 0.062061403 0.012291932

conv2.nn.3.bias f4 [64]
000000 88 ef 3a bd 89 ed e8 3d 07 6e f4 3d e0 ac 03 3d
       -0.04563859 0.11373431 0.119350486 0.03214729
000010 d7 0a ce 3d 75 6f a5 bd 7b 8f 18 bc 4d 52 fc 3b
       0.10060661 -0.08077899 -0.009311552 0.0077002407
000020 b0 c6 b1 bd 7b 8d 71 3d 33 3f 35 bd 54 af ff bd
       -0.08680475 0.058972817 -0.044249725 -0.12484613
000030 ea f1 ac bb 34 6f 88 bc 66 49 ac bd d4 87 b5 bd
       -0.005277862 -0.016654588 -0.08412437 -0.08863798
000040 f0 23 a5 3d c4 b3 65 bd 8e e3 09 bd 2a 56 03 bd
       0.08063495 -0.05607964 -0.03366428 -0.032064594
000050 ef e6 71 3d 65 b8 80 3c 33 97 72 bc 62 70 8d bd
       0.059058126 0.015712926 -0.0148065565 -0.06906201
000060 2a 7f f5 3d ee 5c 11 3d 80 6f b5 bd 16 24 84 3c
       0.11987145 0.035489015 -0.088591576 0.016130488
000070 43 0f 33 3d 4f 3c 16 3d 20 f4 b8 3c 25 61 69 bd
       0.043715727 0.03667861 0.022577345 -0.05697741
000080 84 40 a2 3c 02 c6 96 3d 57 e5 4c 3d 5e 92 d7 3d
       0.019806154 0.07361986 0.050023403 0.10525964
000090 d7 ff a0 bc 29 16 bb 39 76 e2 cd 3d e3 d2 4a 3c
       -0.019653244 0.0003568393 0.100529596 0.012379381
0000a0 3f cc e1 3d 24 f9 0c bd 13 5b 96 3d b0 05 5e bc
       0.11025285 -0.034417287 0.0734159 -0.013551161
0000b0 09 98 d9 3d 3c d6 d4 3d c8 d3 0e 3b cc 78 af bc
       0.106247015 0.103924245 0.0021793712 -0.021419905
0000c0 e4 20 04 be 30 0e b2 3c 82 9b e3 bd 11 e7 b3 3d
       -0.12903172 0.02173528 -0.11113645 0.08784307
0000d0 ff 44 da 3d 5a fa db 3d 1d 5e 63 bd b3 ef c9 bd
       0.10657691 0.1074111 -0.055509675 -0.09860172
0000e0 b8 2f a2 bd 6a 91 23 3c 68 1f 82 3d a2 12 e7 3d
       -0.07919258 0.0099834 0.063536465 0.11282851
0000f0 6b 8c 79 3c 57 58 aa bd a5 5b de bd 71 8b 9f 3d
       0.015231232 -0.08317631 -0.108573236 0.07790268
